recreate/src/mnist_net.pth (torch, 462351 bytes, 8 tensors)

conv1.weight f4 [6, 1, 5, 5]
000000 69 a2 c0 3e 09 74 8d 3e 0a af fb 3e 5b a3 07 3f
       0.3762391 0.2762759 0.49156982 0.52983636
000010 30 9c f0 3e c4 07 ad 3e 9e 23 d8 3e 7d 7b d9 3e
       0.46994162 0.33794987 0.42214674 0.42477027
000020 3f 80 d3 3e 12 fa 1e 3f d4 ab 13 be de 4f 6f bd
       0.41308782 0.62100327 -0.14421016 -0.058425777
000030 c1 e9 78 be 3d 5b 8d be e4 6e a0 3b 88 bf f9 be
       -0.2430792 -0.27608672 0.0048960317 -0.4877894
000040 75 93 bf be 63 99 08 be e2 5a 9c be 0f d5 37 be
       -0.37417188 -0.13339762 -0.30538088 -0.17952369
000050 83 17 9b be df eb a0 be 2b f2 be be e8 48 76 be
       -0.30291376 -0.31429955 -0.37294134 -0.24051249
000060 87 0f f0 bd 9c 14 55 3d ef cd 89 be 5b 57 6e 3e
       -0.117217116 0.052021608 -0.26914927 0.23275511
000070 74 18 80 3e a1 a1 cf 3e 18 e4 a1 be 85 1a 4e be
       0.25018656 0.40553 -0.31619334 -0.20127304
000080 12 0c cd bd f3 4e 5f 3e 97 c4 08 3f 80 3f df be
       -0.10012068 0.2180746 0.5342497 -0.43603134
000090 a8 6a 43 be 43 eb 7a bc de 11 fd 3e a4 c9 92 3e
       -0.19083655 -0.01531488 0.49427694 0.28669465
0000a0 0d c6 c8 be 19 45 98 be 83 82 30 3e 16 1c a3 3e
       -0.392136 -0.29740217 0.17237286 0.31857365
0000b0 92 eb cb 3e 32 d8 f6 bd 1c b8 8d be 61 ca 49 3e
       0.39828163 -0.12052955 -0.27679527 0.19706108
0000c0 95 c2 24 3f ec 7f 08 3e 59 3e 5c be 1d 2e dc bd
       0.6435941 0.13330048 -0.21508159 -0.10750983
0000d0 12 bf 89 be 52 5f 67 be 55 2f b3 be 10 ba 69 bd
       -0.26903588 -0.22594956 -0.3499705 -0.05706221
0000e0 e2 e7 16 be 60 f1 18 be f9 14 9d bd 51 a7 51 bd
       -0.14736894 -0.14935827 -0.07670016 -0.051184956
0000f0 b0 af 6c be 41 3e d0 bd 71 71 a2 bd c1 68 78 bc
       -0.23113894 -0.10168124 -0.079317935 -0.015161694
000100 6c 50 ca 3d bf e0 3d be 83 88 bd bd 0f e4 64 3d
       0.098786205 -0.18542765 -0.09254553 0.055881556
000110 3e 26 8b bd e8 d0 42 bc cb 55 f0 3d bb 86 52 3e
       -0.067944035 -0.011890627 0.11735114 0.20559208
000120 76 2b 0a 3e bd 8d 84 3e cf 40 81 3e 43 2e 82 3e
       0.13493142 0.25889388 0.25244758 0.2542592
000130 2c 78 bf 3e c4 40 31 3e 9c 11 52 3e c0 a6 92 3b
       0.3739637 0.17309862 0.2051453 0.0044754446
000140 c0 ac b4 3c 52 8d 62 bc 78 b9 ba bd 06 a5 46 3e
       0.02205503 -0.013827639 -0.091174066 0.19398889
000150 d2 c7 0a 3e 0e 07 29 be c7 ab 35 be a3 f2 1f 3e
       0.13552788 -0.16506597 -0.17741309 0.15619902
000160 17 f2 4f bb 9e 74 f8 ba be 8a 2e be 91 4c 11 3e
       -0.003172999 -0.0018955653 -0.17045113 0.14189364
000170 93 2d 3e 3e d6 9a b4 3e 6a e4 7d bd 0b 93 9f 3d
       0.18572073 0.3527438 -0.06198541 0.07791718
000180 5a 75 96 bd 8b da 81 bd 18 6e 88 3e f0 5e a2 3e
       -0.07346602 -0.06340512 0.26646495 0.31713057
000190 f9 b7 81 3d 60 e1 53 be 0e c5 8c be 23 f3 13 be
       0.06333918 -0.20691442 -0.2749409 -0.14448218
0001a0 06 3b c1 bd d2 f5 0e be 58 a5 51 bd 22 10 ec bd
       -0.09435086 -0.1396096 -0.051183075 -0.115265146
0001b0 ad a1 45 be d4 48 cb bd eb 06 59 be 3d 55 39 be
       -0.19299956 -0.09926 -0.21194045 -0.18098922
0001c0 9a 4c ac be 49 60 f4 bd 02 67 cc 3e 42 50 91 be
       -0.33652192 -0.119324274 0.3992234 -0.28381544
0001d0 0e 91 8b bd 80 8b 21 bc 3d 29 aa 3e 66 98 0a 3f
       -0.06814776 -0.00985992 0.33234587 0.5413879
0001e0 79 34 31 3e 97 00 a4 3e d5 57 b1 3e 13 f2 f9 3e
       0.17305173 0.320317 0.34637323 0.488175
0001f0 5c d4 05 3e fd 25 b9 3c 21 cd 96 3e 05 74 ba 3e
       0.1306929 0.022601122 0.29453376 0.3641664
000200 74 d2 32 3e fd 10 2e 3e f8 b8 26 3e ba cd ad bd
       0.17463094 0.16998668 0.16281497 -0.08486505
000210 ca 59 e9 bd 1e e5 04 be 47 41 e2 3d e3 2b d3 3d
       -0.11394079 -0.12978026 0.11047607 0.10311105
000220 9d 96 c8 bd 74 11 0f 3e aa 51 59 3c 06 e6 87 3e
       -0.09794352 0.13971502 0.013264099 0.2654268
000230 0e 9f b6 bd 00 21 46 bc c9 b9 10 be de 95 91 bd
       -0.08917056 -0.012092829 -0.14133371 -0.07108663
000240 92 f4 aa 3d 20 d5 e5 3d 81 fb 95 3b eb 64 80 3e
       0.08347429 0.11222291 0.0045771007 0.25076994
000250 08 fe 5d 3e 67 a9 99 3e
       0.21678936 0.30012056

conv1.bias f4 [6]
000000 0b d0 46 be f7 85 00 be 07 05 51 bf 1d 7a c7 3d
       -0.194153 -0.12551104 -0.81648296 0.09740088
000010 bd e2 63 3d 35 9b 8e 3d
       0.055636156 0.06963197

fc1.weight f4 [120, 864]
000000 79 24 f5 3c fc 52 e1 bc 4a 44 79 3c 39 18 b6 bc
       0.029924618 -0.02750539 0.015214035 -0.022228347
000010 a7 98 03 bd fb 34 5b bc 65 fb 66 bc 9b 54 c9 bc
       -0.032128002 -0.013379331 -0.014098023 -0.024576476
000020 d8 ad 00 bd fe 2a b3 3c cd 23 a9 3b 17 16 00 bd
       -0.03141579 0.021871086 0.0051617385 -0.031271067
000030 89 56 0c 3c b9 03 25 bc 7a 0a f6 3c c8 e8 c4 bb
       0.008565553 -0.010071688 0.030034292 -0.006009195
000040 e9 62 e7 bc 69 e8 02 3c 68 d3 bd bc 83 d4 74 3c
       -0.028245406 0.007989981 -0.023172095 0.014943245
000050 2e 76 01 bd 1e 1f 0f bd ba 93 ad bc 6c ed 4f 3b
       -0.031606846 -0.034941785 -0.021188606 0.0031727208
000060 2c 96 9b bc 87 12 d7 bc 6f 48 8a 3c 04 12 fa bb
       -0.018992506 -0.026253952 0.016880242 -0.007631542
000070 f5 c8 33 bd 74 1c 42 bc 12 2c e0 bc e1 9c b2 3c
       -0.04389282 -0.011847604 -0.027364764 0.021803321
000080 8b 3d 58 3c 3e b8 48 bc 7c a6 19 3c 37 47 3e ba
       0.013198267 -0.012250958 0.009378072 -0.00072585366
000090 cf bf 16 3d e5 97 39 3a b6 fd 8a bc d5 39 d5 bb
       0.036804017 0.0007079824 -0.016966682 -0.0065071383
0000a0 e8 d8 54 bc a6 0e a1 3c c8 c5 9c bb 5b f0 3c bc
       -0.012991168 0.019660305 -0.0047843195 -0.011531915
0000b0 bd 05 b1 3c 75 39 c3 bc 4a 5f 09 3c b1 3e fd bc
       0.021609182 -0.023831109 0.008384535 -0.030913683
0000c0 7c e5 a1 bc 9c a1 06 3c 1d 5e b7 3a 2a f5 55 3b
       -0.019762747 0.008217242 0.001398984 0.003264735
0000d0 d4 4c 80 3c aa 22 d7 3b 83 73 13 3c 37 02 a9 bc
       0.015661635 0.0065654116 0.008999708 -0.020630939
0000e0 42 de b2 bb 3a b8 83 3c 09 40 e9 bc fd ed c7 bc
       -0.005458624 0.016079057 -0.028472917 -0.024405474
0000f0 23 0a b8 bc 0c ec 24 ba f1 e1 4b bc 7e 26 22 3d
       -0.022465771 -0.0006291277 -0.012444005 0.03958749
000100 94 96 82 bc b8 a0 b0 3b b8 d9 10 3c d3 03 56 bc
       -0.015940942 0.005390253 0.008840971 -0.013062435
000110 c1 ef 11 bb 50 fd 31 bb 15 54 c0 bc 1c 56 c4 3c
       -0.0022268149 -0.0027159043 -0.023477593 0.023966841
000120 2b 5a e0 bb 94 0c 16 3c 0f d7 c1 3c dc cc db bb
       -0.0068466864 0.009158272 0.023662118 -0.0067077707
000130 29 08 e2 3c 33 c3 5d bc 4d 31 d9 bc b9 92 92 3c
       0.027591782 -0.013535309 -0.026512766 0.017892228
000140 c8 f3 23 bd a2 88 f0 3c 5a ac cd 3c 47 a6 86 bc
       -0.04002741 0.029362027 0.025106598 -0.01643671
000150 32 05 1d 3d 45 32 c2 bc 1a 91 74 3c b9 e2 6c bd
       0.038335033 -0.023705611 0.014927173 -0.057833407
000160 03 62 1f bd 24 a1 fa bc 2d 07 05 3c ad a4 cf bc
       -0.03891183 -0.030594416 0.008119387 -0.025347078
000170 94 4b c2 bb bc 80 0b 3d 19 09 99 bb b9 d2 f0 3c
       -0.00592942 0.034058318 -0.004670274 0.029397355
000180 93 e6 4f bc 92 7c b8 bc b3 0c 58 bb c2 a9 08 3c
       -0.0126892505 -0.022520337 -0.0032966554 0.008341255
000190 28 d8 2e bd 33 50 e1 bc 12 a5 bf bc cc d6 8c 3c
       -0.04268661 -0.027504062 -0.023394141 0.017192267
0001a0 a9 6a d7 3c 54 33 a9 bb ff b5 76 ba a2 f6 cc 3c
       0.026295977 -0.0051635895 -0.0009411275 0.025019947
0001b0 de 61 43 3c 8d 54 1b 3c 1b 59 c7 bc ea aa 84 bc
       0.011925189 0.009480608 -0.024334481 -0.01619478
0001c0 6d 63 69 bb c6 a1 07 bd f0 76 17 3d e2 25 ee 3c
       -0.003561224 -0.033113264 0.036978662 0.029070798
0001d0 d9 04 15 3d 52 59 48 3d 71 9b c9 39 e6 91 22 bb
       0.036381576 0.048913307 0.0003845352 -0.00248062
0001e0 43 50 a0 3c d3 ea 9b bc 29 5c 9f 3c a6 1a 3e 3c
       0.019569522 -0.019032871 0.019453125 0.011603033
0001f0 d2 7e 8c 3c 48 dd 03 3d 0b 86 23 b9 6c 73 b8 3c
       0.017150316 0.032193452 -0.00015594826 0.022515975
000200 0d f5 89 3c d3 7c 05 3d b9 6c 2e 3b 43 14 c9 3b
       0.016840482 0.032589745 0.0026615097 0.0061364486
000210 7e 63 75 3a ea 33 05 bb 78 3e 50 3d 7c 41 ec 3b
       0.0009360834 -0.0020325133 0.050840825 0.007209955
000220 6b 41 ea bc fb ed f6 bc af af 3a bd cf 0b ff 3b
       -0.028595647 -0.030142775 -0.0455777 0.00778339
000230 28 25 dd 3b 76 d4 13 bd 91 15 cf bc 9f 63 82 3c
       0.006748814 -0.03609129 -0.025278838 0.015916644
000240 1c a6 82 3c cc 6a 7a 3c c8 e2 16 3c d3 69 05 3c
       0.015948348 0.015284251 0.009209342 0.008142906
000250 5c 1f 03 3c 12 b3 83 bb 7a f7 29 bc a3 ea 94 3c
       0.008003082 -0.0040191496 -0.010373944 0.01817829
000260 72 cd 1e bc 01 37 bf 3c ab fd 9c 3c b1 86 bd bc
       -0.009692537 0.023341658 0.019163927 -0.023135515
000270 35 33 0d 3d 71 45 51 bb 22 7d 21 bd 7d 4b b0 bc
       0.034472663 -0.003193226 -0.039425977 -0.02152037
000280 46 8e c9 bc 24 c3 5e 3b a6 11 4e 3c a5 56 95 bc
       -0.024603974 0.0033990825 0.01257745 -0.018229792
000290 e6 71 42 3c 09 ec 5f bb 1c 88 cc bc 02 9c 60 3c
       0.011867976 -0.0034167788 -0.024967246 0.01370907
0002a0 13 05 11 3d 60 8e 63 3c 92 9a 28 bc 43 97 1f bb
       0.03540523 0.013888925 -0.010290759 -0.0024351634
0002b0 f8 24 1a bd 09 f4 16 bd 25 43 16 bd 8b 33 81 3c
       -0.037632912 -0.036853824 -0.036685128 0.015771648
0002c0 f8 4c 73 bc e3 00 1f 3d 91 67 25 bc 24 db 9e 3c
       -0.014849894 0.038819205 -0.010095493 0.019391604
0002d0 3d 47 f0 3c 48 df 3d 3a 8a 22 bf 3b 00 7f 62 bc
       0.029330844 0.00072430493 0.005832975 -0.0138242245
0002e0 c9 e5 0d bd c4 97 91 bc fb 10 db bb 34 80 61 3c
       -0.03464297 -0.017772563 -0.006685374 0.013763476
0002f0 40 98 32 3d 8e e7 84 3c 1e 8e 31 bc 27 7d c8 bb
       0.04360223 0.016223695 -0.010837106 -0.006118435
000300 95 01 fe 3c ec 1e 5d 3d 10 12 d2 3b f6 be 01 3c
       0.031006614 0.053984568 0.0064108446 0.007919064
000310 50 05 de bc b3 96 ca 3b e1 59 75 3b 1a 88 70 3a
       -0.027102143 0.0061825155 0.0037437605 0.0009175554
000320 e5 47 fc 3c 24 8d 27 3d 17 25 0f 3c 68 68 f0 bc
       0.030796 0.040906087 0.00873687 -0.02934666
000330 e4 4e 77 bc 7c b1 d2 3b bc 79 3b 3d 33 62 86 3a
       -0.015094493 0.006429849 0.04577039 0.0010252654
000340 17 b8 44 bd 84 1b 41 bc 0a 77 38 bc 27 7d 88 3c
       -0.048027124 -0.011786345 -0.01125885 0.01666124
000350 b0 b2 21 3d 39 51 60 3d 94 7d 15 3c 79 96 88 3c
       0.03947705 0.05476496 0.009124178 0.016673313
000360 2f 11 9d 3c 84 cc 2b 3d 38 2a ae b9 f9 19 50 3c
       0.019173233 0.04194309 -0.00033219322 0.012701505
000370 5a fd ea bb df 49 17 3d 91 5a 91 bc 11 81 10 3c
       -0.007171315 0.036935683 -0.01774338 0.008819834
000380 b3 98 a2 3c 58 37 72 bb 48 41 e1 3c 58 0c c6 3c
       0.019848203 -0.0036959257 0.027496949 0.024175808
000390 c1 52 17 3d f6 4b bb 3c d7 6d e1 3b 42 39 88 bc
       0.036944155 0.02286337 0.006879549 -0.016628865
0003a0 d1 05 7f 3c 96 a0 c1 3c 1c b2 3e bc c1 f3 19 3d
       0.015565352 0.023636144 -0.011639144 0.037585977
0003b0 aa 7d 10 bb 85 29 82 3c 52 fb c9 3b f3 79 22 3c
       -0.0022047558 0.015888939 0.006163993 0.00991677
0003c0 f1 70 70 bc a7 10 43 3d 14 4e 03 bc 45 f5 aa 3c
       -0.014675365 0.047623303 -0.008014221 0.020868907
0003d0 d4 a7 35 bc a3 76 7d ba 5b 54 7c bb ae 29 c1 3b
       -0.011087377 -0.00096688623 -0.0038502428 0.005894861
0003e0 f1 28 d4 3c 1a 0b fe bc b8 12 a4 bc a6 f1 85 39
       0.025898429 -0.031011153 -0.020028457 0.0002554778
0003f0 82 41 fa 3c 2b f7 81 3c 11 e4 72 3c 7c a5 c1 bc
       0.030548815 0.01586493 0.014824883 -0.02363848

fc1.bias f4 [120]
000000 c5 73 84 bc 98 70 20 3c bc a1 a2 bc b1 3b 7d 3c
       -0.016168484 0.009792469 -0.019852512 0.015456126
000010 89 4c d9 bc b2 d9 fd 3c be 2f d6 3c 69 70 73 bc
       -0.026525753 0.030987594 0.026145812 -0.014858344
000020 85 27 27 bb 66 d6 0a 3d 56 b8 db 3c a9 05 d8 3c
       -0.0025505733 0.033895873 0.026821297 0.026369886
000030 3e a6 4c 3c c2 33 fb 3b a3 ce 6c 3c 2f 96 98 bc
       0.012490807 0.007666082 0.014453563 -0.0186263
000040 f2 14 c5 bb c3 a9 06 bd f9 5c 92 ba 07 13 50 3b
       -0.0060144598 -0.03287674 -0.0011166624 0.0031749622
000050 e3 8f a8 bc 75 63 87 bc 33 85 b8 3c f7 5a 8c bc
       -0.020576423 -0.016526917 0.022524452 -0.01713322
000060 bc c6 ea 3c 17 de 21 3b 89 0f 8b bc 20 89 1b 3c
       0.028659217 0.0024699026 -0.016975181 0.009493142
000070 18 1b d5 bc 2b 1f 01 bd 02 76 be bc b5 cc fc 3b
       -0.026013896 -0.031523865 -0.02324963 0.0077148327
000080 85 7d 60 3c b9 f1 89 3b a4 7e 02 3b f3 a1 57 bc
       0.013701801 0.004209724 0.001991191 -0.01316117
000090 c9 24 0d 3d 50 52 7f 3a 81 35 79 bc 6e 4e 49 bb
       0.03445891 0.00097397435 -0.01521051 -0.0030716914
0000a0 43 05 d3 3c 2d e6 a7 3c f2 ec cb 3a 1c 48 dc bb
       0.025759345 0.020495499 0.0015558286 -0.0067224633
0000b0 25 2e 0a 3c 04 1f cb bc c2 2e a1 3c dd e3 e0 bc
       0.008433853 -0.024795063 0.019675616 -0.027452404
0000c0 ca 3f 77 bc e9 eb 54 3c e3 6f d5 ba 6b 9a 37 bb
       -0.015090892 0.0129956985 -0.0016283955 -0.0028015624
0000d0 b6 50 dd 3c ce 5b c7 3c 7c 30 d0 bb 5d 86 62 3c
       0.027016025 0.024335768 -0.006353436 0.01382598
0000e0 28 4a e9 bc b2 8c b0 bc 97 19 dc 3b be 1e 4a bc
       -0.028477743 -0.021551464 0.0067169177 -0.012336431
0000f0 6e 8c c7 bc 0c e3 d9 3b f6 5c ad bc a1 46 af 3c
       -0.024358954 0.0066493805 -0.021162491 0.021395983
000100 94 7c b1 3c 10 8c a5 3c f6 d9 cf bb cb 91 9c bb
       0.021665849 0.020208389 -0.0063431216 -0.004778122
000110 14 b5 47 bb 45 56 af 3c 5a 3f df 3a 59 d9 08 bd
       -0.0030472921 0.021403441 0.001703243 -0.033410404
000120 a3 95 0d bc 3d ef 0b 3d 48 31 90 bc 26 cf 88 3c
       -0.008641633 0.034163702 -0.017601624 0.016700339
000130 72 83 04 3b 2c c4 1d ba 4c 52 e2 bc 76 24 b9 3c
       0.002021995 -0.00060183066 -0.027627133 0.022600394
000140 6b 63 b9 3b a3 f6 1a bd 25 cf 2f 3c 8c 55 a9 bc
       0.0056576035 -0.037832867 0.010730539 -0.020670675
000150 1d 0d ea ba 8a a1 a6 3b 6b 60 c4 bb 8c 57 6b 3c
       -0.0017856691 0.005085175 -0.005992939 0.0143641345
000160 95 25 1a bb 1c fe 70 3c fc 0b 86 39 10 9f 99 3c
       -0.0023520936 0.014709022 0.000255674 0.018752605
000170 9f 98 26 3b dd c8 0b 3b 47 ec 8e bc ef 4e 31 3c
       0.002542056 0.002132944 -0.01744665 0.010822042
000180 d3 ed be 3c 56 d8 84 bc fe 78 9a 3c 0b f4 ed bc
       0.023306763 -0.016216438 0.018856522 -0.029047033
000190 53 31 9c bc 1d 1b ce 3c ee 5e c6 bb fa 61 47 3c
       -0.019066488 0.025159413 -0.006053797 0.0121693555
0001a0 15 5d 59 3c de b4 0b bb 21 5c c8 3c 06 d0 be bc
       0.013266821 -0.0021317522 0.024457993 -0.023292553
0001b0 8f 81 4a 3c 16 53 75 3c ab a5 5f 3c 3f fb 87 3c
       0.012359991 0.0149734225 0.013650338 0.016599296
0001c0 05 90 ea bc 7c 10 44 3c 5e 3b 06 3c d5 36 9f 3c
       -0.028633127 0.011966821 0.008192865 0.019435326
0001d0 de 28 00 3d a4 72 ef 3c 16 6b 09 3d 54 48 f7 bb
       0.031288974 0.02922947 0.03354939 -0.007546464

fc2.weight f4 [84, 120]
000000 41 9a b8 3c a9 00 26 3d 12 13 fa 3c d6 a9 64 3d
       0.022534491 0.040527973 0.030526672 0.05582603
000010 56 d3 f6 bd 6e f2 28 3d a1 7c ee 3d 64 55 c6 3b
       -0.12052028 0.041246824 0.11644865 0.00605266
000020 77 b8 51 bd f0 59 85 3d 5c d6 cd bc 8c 43 f7 3c
       -0.05120131 0.06511295 -0.025126629 0.030183576
000030 7c bb 9f 3d af 24 09 3d a5 4f 61 3c 22 93 0b bd
       0.07799432 0.03348225 0.013751899 -0.034075864
000040 88 2a 02 bd ad a2 ec 3d 62 75 dd 3c 0c ce 28 bd
       -0.031778842 0.115544654 0.027033512 -0.041212127
000050 8f eb 71 3d 7b 90 97 3d 80 e6 bf 3d d4 a5 a8 3d
       0.059062537 0.07400604 0.09370136 0.08234754
000060 60 3f 79 bd f9 9d 2f bd 0c d9 56 bb 2d 87 9d 3b
       -0.060851455 -0.042875264 -0.0032783179 0.004807374
000070 99 fd a1 3d 92 6a 71 bd 68 11 62 3d a7 25 20 bd
       0.07909698 -0.058939524 0.05519238 -0.039098408
000080 e3 61 7a 3d b2 99 28 bd 66 22 72 bd ba 3e 15 3d
       0.06112851 -0.0411622 -0.059114836 0.036436774
000090 9f 16 4e bd d4 57 37 3d bc c0 c7 bd ec 88 d1 3d
       -0.050314542 0.044761494 -0.09753558 0.10231194
0000a0 10 72 5d bd 79 7b 6e bc 3f 4e af bd 5c 68 ae 3c
       -0.054063857 -0.014555805 -0.08559846 0.021289997
0000b0 6a 27 be bd 63 57 98 bc 0a f3 eb 3d e8 1e 8c bc
       -0.092848614 -0.018596357 0.115209654 -0.017104581
0000c0 cd f8 3b 3d a6 3d ad 3d 08 b6 3a bc 3a 47 10 bd
       0.04589157 0.08459024 -0.011395939 -0.035224177
0000d0 b0 e3 01 bd b9 d8 a9 bd 12 6b 41 bd d6 50 dd bd
       -0.03171128 -0.0829329 -0.04722125 -0.10806434
0000e0 ae e2 c3 bd 0d ac 36 3b 88 0a 99 bd 0c 18 96 bc
       -0.0956472 0.0027873546 -0.07472712 -0.018322013
0000f0 a2 b3 33 3d 4c 63 a8 bd 16 6a 93 3d 5d 96 e2 ba
       0.043872483 -0.082220644 0.07197969 -0.0017287243
000100 1d 3a a3 bd 18 23 73 bb 4a 57 cb bd 3b ad 58 bd
       -0.079700686 -0.0037099775 -0.099287584 -0.05289958
000110 d5 fa b5 bd d6 a6 35 3c 74 4f 8e bc 19 79 b7 bd
       -0.08885733 0.01108714 -0.01737187 -0.089586444
000120 57 51 0e bd 93 df 97 3d 6a fc 5a bd d6 c7 72 3d
       -0.03474554 0.0741569 -0.053463377 0.05927261
000130 a4 da 9b 3d e5 b3 32 bd 1f e9 60 bc 18 ad 7e bd
       0.07610062 -0.043628592 -0.013727455 -0.062176794
000140 10 2e e7 bc 81 2b 23 3d 91 10 d9 bd 69 49 83 bb
       -0.028220206 0.03983641 -0.10598863 -0.004006554
000150 03 9f f9 3c 4e b9 fa 3d 93 5a 93 3d 4b 8f a0 3d
       0.03047133 0.12242375 0.0719501 0.07839831
000160 78 54 77 3d 2e d7 b1 3d 14 7f 9f 3d 71 e9 3c bc
       0.06038329 0.086836204 0.0778791 -0.011530266
000170 8b 7f 86 3d 90 5d cc bd cd 8e dd bd 10 b7 9e 3d
       0.06567296 -0.09978783 -0.10818253 0.0774976
000180 6d 2c a9 bd 4e 02 88 3c 98 b9 87 3d e4 26 c3 bb
       -0.08260427 0.016602661 0.06627196 -0.005955564
000190 0b d8 85 3d e3 a0 da 3d 73 f2 e0 bd 53 7c 99 bd
       0.065353476 0.10675218 -0.109837435 -0.07494416
0001a0 97 11 9c 3d d4 fb 2f ba 4e e2 ef bc 19 9e 31 bd
       0.076205425 -0.00067132455 -0.029282715 -0.043363664
0001b0 b7 a8 a6 3c bf fb 24 3d 90 80 fc 3d a8 a6 90 3c
       0.020344121 0.040279146 0.12329209 0.017657593
0001c0 37 e3 34 3c 44 4d 4e bc 94 0a a5 3d c9 c7 a3 bd
       0.0110405 -0.012591664 0.08058658 -0.0799709
0001d0 1f fe 26 bd 4c f1 25 3d 7d 39 a3 bd bf 56 34 bb
       -0.040769693 0.04051332 -0.079699494 -0.0027517525
0001e0 4b 65 4a 3d 0e 93 d1 3d eb b8 06 bd da e5 23 3d
       0.049413007 0.102331266 -0.032891195 0.040014125
0001f0 f4 97 16 be 71 c1 6a 3d 60 da c3 bd 9e 5a 31 bd
       -0.14706403 0.057313386 -0.09563136 -0.04329931
000200 71 e0 b3 3d 6e b2 bf bc ea b3 3c 3d 9d 85 5f bd
       0.08783043 -0.023400512 0.046070017 -0.054570783
000210 b4 53 c1 3d 0f 0d 5b bd 74 85 57 3d 92 77 96 bd
       0.09439793 -0.05347925 0.052617505 -0.07347025
000220 db 96 8c bb 3f 81 17 be 20 df 26 bd 5e 11 ad 3c
       -0.0042904443 -0.14795397 -0.040740132 0.021126445
000230 65 a7 53 bd 17 4a 4c 3c 47 77 91 bd 3d 8b 88 3d
       -0.05167331 0.012468836 -0.071028285 0.066671826
000240 f7 47 91 bc 2f a9 1a 3e ef 7f e5 bb c6 8f c0 bc
       -0.01773451 0.15103601 -0.0070037763 -0.023506057
000250 71 2d d4 bd e8 a0 9c 3d cb cd 13 3d 5e bd f1 3c
       -0.1036023 0.07647878 0.03608493 0.029509243
000260 ef 2b 2f bd e7 b1 16 bd 64 10 99 3d 07 d3 18 3d
       -0.042766508 -0.036790755 0.074738294 0.037310626
000270 c7 cb 97 3d 09 09 9a 3d 2a 9c 9d 3d aa ed e7 3d
       0.07411914 0.075212546 0.076958016 0.11324628
000280 7f d3 c2 3b 9f 4d 23 bd ca a9 18 bc e4 ba ae 3c
       0.0059456225 -0.039868947 -0.009317825 0.02132935
000290 6e b0 1a be 2a c4 fc bc 99 22 c2 bd 8a 0e 3e bd
       -0.15106365 -0.030855257 -0.09479255 -0.046400584
0002a0 1d be 2a bd 53 9c 20 3d 0e c8 f9 bc 66 9a 97 3d
       -0.041685212 0.039211582 -0.030490901 0.07402496
0002b0 a2 a3 05 bd 76 b2 6f 3d 34 42 89 bd 3c 1c 44 3d
       -0.032626756 0.058519803 -0.0670208 0.04787849
0002c0 d3 25 83 3d d9 d7 a3 3d f9 01 7d bc bf 76 85 bd
       0.06403699 0.08000154 -0.015442365 -0.0651679
0002d0 69 1b 03 3e 4d 66 ae bd b2 78 ec 3c cd 17 80 bd
       0.12803425 -0.08515606 0.028866146 -0.0625454
0002e0 35 c8 f1 3c ba a8 a8 3d 12 18 3b bd 8c 18 c4 bd
       0.029514411 0.08235307 -0.045677252 -0.095749944
0002f0 88 e2 8f 3d 60 a9 b1 bd 42 fb 8f bc ea ee 61 3a
       0.07025629 -0.08674884 -0.017575864 0.000861867
000300 3d f0 52 3c c1 d0 a5 3d 8f ad 84 bd 06 7e 8f 3d
       0.01287466 0.08096457 -0.06478416 0.07006459
000310 97 08 b5 bd 61 90 ae 3c 06 ff a8 bd 34 87 6c 3c
       -0.08839529 0.02130908 -0.08251767 0.014436532
000320 34 e2 fa 3c 14 04 b5 bd f4 8d 44 3d db 2b 15 3e
       0.03062544 -0.088386685 0.04798694 0.14567511
000330 2f da 2f 3e 98 8c a7 3c c0 29 e8 bd 2a a6 a9 bc
       0.17173074 0.020452783 -0.11336088 -0.020709116
000340 50 78 26 3b 6e 03 ba bc c6 74 5a 3d ea 3b 77 3d
       0.0025401302 -0.022706714 0.05333402 0.060359873
000350 4b b7 56 3d 76 b4 97 3d 27 0b e6 3d 77 dd 20 3e
       0.052420896 0.07407467 0.11232596 0.15709482
000360 e0 c6 9c bc dc 15 81 3d 13 ee d3 3d 4d a6 fe 3c
       -0.0191378 0.063029975 0.103481434 0.031085158
000370 de ee d7 3d 82 4f aa 3c b6 14 22 3d 11 66 96 3d
       0.10543607 0.020789865 0.039570533 0.07343686
000380 3c cc fb bd 48 4c 63 3d 22 71 66 3c cf b6 f8 bc
       -0.12294814 0.05549267 0.014065059 -0.030360607
000390 ba 8e 77 bc 45 4a 37 bd 2a b2 07 be c3 2d dc bb
       -0.015109712 -0.044748563 -0.13251558 -0.0067193224
0003a0 1e aa 05 bd 82 ed 9d bd d9 8d 48 3d e1 6c b8 3d
       -0.03263294 -0.07711317 0.0489634 0.09005142
0003b0 04 8f d3 bc 67 f9 b8 bd 3e d1 a7 3d e6 af aa 3d
       -0.025825031 -0.09031945 0.08194207 0.08334331
0003c0 29 f5 7f bd 25 4b 62 bd 20 7d 07 3c 09 6f b2 3d
       -0.062489662 -0.055247445 0.008269578 0.087125845
0003d0 f3 9b 9a bd 5a 24 4b 3d 1b 07 52 bd e6 4b 47 bc
       -0.07549276 0.049595214 -0.051276308 -0.012164092
0003e0 fe c2 60 3d bb 05 ef bc ff 2c 9e 3d b5 da aa 3d
       0.05487346 -0.029177537 0.07723426 0.08342496
0003f0 7a c6 f5 bc 64 54 1c bd 4c d5 38 3d 0e 3b 80 bd
       -0.030001868 -0.03816642 0.04512529 -0.06261264

fc2.bias f4 [84]
000000 f3 60 99 3c 20 cf 62 3d e6 d9 32 3d ba 50 34 bd
       0.018722987 0.05537331 0.043664835 -0.0440223
000010 a1 ef 4c 3c f7 a7 76 bd d7 4c c6 bc c2 7d cc 3d
       0.012508304 -0.060218778 -0.024206562 0.09984924
000020 40 5b d2 3c a5 67 a6 bc 41 1b be 3d d3 16 a2 bd
       0.025678277 -0.020313093 0.09282542 -0.079145096
000030 f7 cc 85 bb 28 22 88 bd 7b 8c 8a bc 38 07 68 bd
       -0.0040832716 -0.0664714 -0.01691269 -0.05664751
000040 32 2c 07 bc dc 9d 6f bc 1e d6 c2 bd 6e 02 0e bd
       -0.008250283 -0.014625039 -0.09513496 -0.034670286
000050 67 25 a2 3d 51 58 76 bd 49 45 33 bd 02 d2 a5 bc
       0.0791729 -0.06014282 -0.043767247 -0.020241741
000060 98 5f 26 3d 12 d3 28 bd 11 ce c2 3c ad 97 4d bd
       0.04061851 -0.041216917 0.0237799 -0.050193477
000070 62 09 14 3d 96 5c b6 3c 60 9a a5 bd 69 4e 13 bd
       0.03614176 0.022260945 -0.08086085 -0.03596345
000080 90 c0 d6 3b 66 82 0d 3d e7 bb ce bc ce c4 f8 bc
       0.006553717 0.034548186 -0.025236083 -0.030367281
000090 66 90 53 3d c6 b0 95 bd 26 cf 8b 3d 47 4e ea 3d
       0.05165138 -0.073091075 0.0682662 0.114407115
0000a0 4e 18 94 3d bb e8 83 bd 68 8e 3f bd 67 fa 4b 3c
       0.07231198 -0.06440874 -0.04676667 0.012449837
0000b0 b8 85 77 3d 9a 07 4e 3d 3b f3 7e 3d 14 b8 10 3d
       0.06043026 0.05030022 0.06224368 0.0353318
0000c0 0e d2 a2 ba 72 8a 53 bd ff f3 4d bd 29 28 28 3d
       -0.001242222 -0.051645704 -0.05028152 0.041053925
0000d0 20 ed 76 bc a4 10 84 3d 4c 2a ad 3d 91 a7 07 3d
       -0.015071183 0.064484864 0.08455333 0.03311879
0000e0 9a 5b bd bd 7b 91 46 bc 9b d0 67 3d 66 87 c0 3c
       -0.09245987 -0.012119646 0.056595426 0.023502063
0000f0 c5 bd 32 3d c2 39 ad b8 e3 89 a0 3d dd 9c 22 3c
       0.04363801 -8.260041e-05 0.078388 0.009925094
000100 db 13 8d 3d 1b 41 8c 3d c6 80 c7 3d b2 55 6b 3d
       0.06888553 0.068483554 0.097413585 0.057454772
000110 bf ae 0c 3b 1f 0c 45 bd 1d 8b 40 3d ce 5b a7 3d
       0.0021466461 -0.048107263 0.04700767 0.08171807
000120 da 73 a6 3d af d9 89 3b 24 fd 84 3d 67 f3 a7 bd
       0.08127566 0.004206858 0.06493595 -0.08200722
000130 b9 0a ab bd 88 56 15 bd 93 bf 81 3d e3 56 0f bd
       -0.083516546 -0.036459476 0.06335368 -0.03499497
000140 0e bf d1 bc 20 80 1b 3d 37 bf b5 bd 77 71 5a bd
       -0.025603797 0.037963986 -0.08874362 -0.053330865

fc3.weight f4 [10, 84]
000000 02 46 23 3d b0 95 17 3e eb 87 a8 bd a8 db ea bc
       0.039861687 0.14803195 -0.08229049 -0.028669193
000010 f3 68 15 be 45 ca fc 3d 58 62 be bc c4 7d 59 bc
       -0.14590816 0.12343267 -0.023240253 -0.013274614
000020 b6 46 6e bd a3 74 0e 3e c6 ee 81 3e 83 ce 15 3d
       -0.058172904 0.13911681 0.25377482 0.036573898
000030 16 6f 82 3e 9d 54 fb 3c 0d 86 50 3e 79 4d 6e bd
       0.25475377 0.030679995 0.20363636 -0.058179352
000040 3a 05 74 3d 03 4d e1 3d 64 66 03 bc 00 93 0e bd
       0.059575297 0.11001017 -0.008020017 -0.03480816
000050 91 7d 0b 3d 90 58 d3 3d 8e fd cb bc 4d fb 85 bd
       0.034055296 0.10319626 -0.024901178 -0.065420724
000060 97 b8 21 bc 91 28 0b 3e d7 e2 bf bd 91 81 ff 3d
       -0.00987067 0.13589694 -0.09369438 0.12475885
000070 ef 20 dc bd db 17 ca bd 23 bf ac 3d 35 aa 37 bd
       -0.10748469 -0.09867831 0.08434894 -0.044840056
000080 56 6a 8e 3e 8f 5e 1c be 0a 2e b4 3d 33 39 f9 3d
       0.27815503 -0.15270446 0.08797844 0.12169113
000090 39 ca 9c be 3c 56 9a bd ec 6c 08 3e 7a 3a 8c 3e
       -0.30623034 -0.07535979 0.133228 0.27388364
0000a0 35 15 ec 3d db 69 32 be 9d ec 06 bd 1f a1 d4 bd
       0.115274824 -0.17423193 -0.032940496 -0.10382294
0000b0 63 e8 b3 bd d0 bd 96 bd b5 3d 47 3d 6a 6b 0a 3e
       -0.087845586 -0.073604226 0.048642833 0.13517538
0000c0 4f c2 5e bd a2 65 ce bc a4 2f e4 bd a2 04 9d bc
       -0.054384526 -0.025194947 -0.11141899 -0.019167248
0000d0 3a c6 17 be 97 33 72 be 1b a2 37 3e 10 6b 7d 3e
       -0.14821711 -0.23652492 0.17932932 0.24747872
0000e0 73 8d 93 3d dc 55 31 3d fb a1 36 be a8 85 67 3e
       0.07204714 0.043294773 -0.17835228 0.2260958
0000f0 51 56 fa 3d b5 e2 dc bd 6a 88 bb 3d 4d 6f 95 be
       0.12223495 -0.107854284 0.09156878 -0.29186478
000100 e8 0e a9 bd 58 5b 5a 3c d6 b0 8d bd 37 32 30 3c
       -0.08254796 0.013327442 -0.069184944 0.01075416
000110 1b aa b5 3d 33 ab 3a bd 6f ed b5 3d a4 f3 03 3e
       0.08870336 -0.045573425 0.088831775 0.1288591
000120 16 ef 75 be b4 f5 3d bd f2 60 58 be ed d2 87 3c
       -0.24016985 -0.0463769 -0.21130732 0.01658007
000130 43 66 8a bd 40 06 5a be 37 59 a3 bd 2a e3 22 be
       -0.06757786 -0.21291447 -0.07976001 -0.15906969
000140 5f 92 a4 bd 3c 8b 62 be 21 14 60 bd ab e2 c3 3d
       -0.080357306 -0.22123426 -0.054706696 0.09564718
000150 79 b8 6b be dd 6b 55 be 58 f3 d6 3d d5 ba 83 3e
       -0.2301959 -0.20841928 0.10495633 0.2572848
000160 fb 2e 1f 3e b9 63 8e bd 79 9f be bd 9f dd 16 3e
       0.15545265 -0.06952614 -0.09307761 0.14732979
000170 58 8a 95 3e 2a c7 87 be 64 7a 0a be f3 b6 d2 3d
       0.2920711 -0.26519138 -0.13523251 0.10288801
000180 86 ca 9b 3d 2c ea d7 3d 9c 94 26 bc d1 af 92 bd
       0.07606988 0.105427116 -0.010167267 -0.071624406
000190 5c 26 1d 3e 24 32 d2 3d 1e d6 85 3d 00 8a af 3e
       0.15346664 0.1026347 0.0653498 0.34284973
0001a0 d4 30 1d 3e 07 5b 88 be 55 a0 27 be c5 3d 08 bd
       0.15350658 -0.26631948 -0.16369756 -0.033262033
0001b0 ab ef e4 3d 75 84 43 3e 03 e9 38 be 4d 59 16 be
       0.111785255 0.19093497 -0.18057637 -0.14682503
0001c0 1a f1 27 be 06 89 10 be a7 93 c6 3d 96 09 48 3e
       -0.16400567 -0.1411477 0.09696131 0.19534907
0001d0 fd d5 02 bd 9a 77 25 3e 69 5b 84 3d 8d 4d 94 be
       -0.031942356 0.16158906 0.064627476 -0.28965417
0001e0 28 c9 89 3e 4c fb 93 3d 8c 40 95 3d 8a e8 49 be
       0.26911283 0.072256655 0.07287702 -0.19717613
0001f0 96 33 0a 3e a0 cb a2 3c 44 d7 b4 bd 23 4d 9f 3c
       0.13496241 0.019872487 -0.08830121 0.019445961
000200 08 2c a2 3d 7c b5 ca 3d 32 5b 9c bd ab 7f 76 bd
       0.079185545 0.09897897 -0.076345816 -0.060180347
000210 e8 3b eb 3d b2 b8 9b 3d e2 47 c0 3d 48 e0 2f be
       0.114860356 0.07603587 0.093887106 -0.171754
000220 41 e0 9c bd 57 91 79 be f1 de e8 3d ca 6c 38 bd
       -0.076599605 -0.24371849 0.11370648 -0.045025624
000230 52 e9 09 bd 7c a4 95 ba 14 45 d6 bd 2d d9 00 be
       -0.033669777 -0.0011416818 -0.10462394 -0.12582846
000240 b1 09 37 bd d5 a2 a0 3d 68 31 d8 3d 95 9f b5 3e
       -0.044686977 0.07843558 0.105562985 0.35473314
000250 99 50 16 bd 04 de ad bd 2f 78 7e 3e 5b b6 9e bd
       -0.036697958 -0.08489612 0.24850534 -0.07749625
000260 60 e1 a4 be 07 3e 56 3c 2f 0a 82 bd b9 56 ea bd
       -0.32203197 0.013076312 -0.063495986 -0.11442322
000270 b7 2a d2 3c 78 4d ac bd ae 8f 3d bd e9 1b 7a 3c
       0.025655134 -0.084132135 -0.0462796 0.015265443
000280 cc 69 71 3d 74 94 43 3e 8a 5c 3c 3d 60 f4 ea 3d
       0.058938786 0.19099599 0.04598669 0.11472392
000290 bc 7d 60 bd ef df f0 3c d7 58 a1 bb 24 15 1b be
       -0.05480741 0.029403655 -0.0049239206 -0.15144783
0002a0 30 19 bc bd 94 a3 69 be c2 88 7a 3d 0a 71 86 bd
       -0.09184492 -0.22816306 0.06116558 -0.06564529
0002b0 29 d8 0a 3d b8 94 26 3e 87 5e e8 bd a4 81 4e be
       0.033897553 0.16267669 -0.11346155 -0.20166641
0002c0 f9 7c 1e 3e 34 f8 62 be 38 59 32 3e 4a a1 36 39
       0.15477361 -0.22164994 0.17416847 0.00017416957
0002d0 08 0e 81 bc e1 56 88 bd 80 a3 40 be 54 5c bd 3d
       -0.015753761 -0.06657196 -0.1881237 0.09246126
0002e0 7b b1 fe bd 2b 11 05 be ab 7f b0 3d 78 69 f9 bd
       -0.124361955 -0.1299483 0.08618101 -0.1217832
0002f0 d3 eb d6 3d f6 42 bc 3d 0c e9 8f bd 57 03 52 bd
       0.10494199 0.09192459 -0.07026872 -0.051272716
000300 38 5e 60 3d f5 e2 5d 3d 09 03 4d bd a9 a7 21 bc
       0.054777354 0.05417152 -0.050051723 -0.009866633
000310 20 0e 2a 3e 81 ca fd bd bd 67 49 bd a2 66 f4 bd
       0.16606951 -0.1239214 -0.0491712 -0.11933638
000320 d6 61 30 3e c9 de f1 3d 15 84 58 3d e5 cd 35 bd
       0.17224821 0.11810071 0.05286034 -0.04438581
000330 78 e9 b4 3e 43 36 a9 3d 9b 46 68 be 0e 6b 43 3e
       0.35334373 0.08262303 -0.22683184 0.19083807
000340 94 fd 18 3e 2d c8 99 be 8a e6 9c 3d c9 3e 01 3d
       0.14940482 -0.30035535 0.07661159 0.031554017
000350 d5 3f 94 bd a2 d4 ff bd 39 db e2 3d 50 bf 10 3a
       -0.072387375 -0.12491728 0.1107697 0.0005521672
000360 fa 4a 87 3e 3c a6 eb bc ad e2 1a be c1 f4 47 3d
       0.2642439 -0.02876579 -0.15125532 0.0488174
000370 76 68 d9 bc 5e df 13 bd eb 3a 9a bc f0 8f 19 3d
       -0.026539069 -0.03610169 -0.018826922 0.037490785
000380 7a 0f 8b 3d 05 bb 0c 3e cf 6b 5c 3d 83 54 22 3e
       0.06790061 0.13743217 0.05381375 0.15852551
000390 72 3e 7b 3d b4 77 8e 3d 70 ac c2 3d a9 d8 13 bd
       0.06133885 0.06956425 0.09505546 -0.036095295
0003a0 f5 55 26 ba f5 86 ca bb e7 51 85 be 63 57 5f 3c
       -0.0006345206 -0.006180639 -0.2603905 0.013631674
0003b0 cf 0d 75 3d c7 10 37 3d 8e 55 17 3d f0 7b b9 3d
       0.059827622 0.044693734 0.036946826 0.09056842
0003c0 57 b0 a4 3e 16 1a b8 3d 84 9b 6e be 2f 26 15 3e
       0.32165787 0.089893505 -0.23301512 0.14565347
0003d0 cb 6c 9a bd 93 26 59 3d 19 3d a4 bc 1f e3 8e 3d
       -0.07540282 0.053015303 -0.020048665 0.06976914
0003e0 5b f5 38 be 6b 72 07 be 0f 71 90 3e 2c e3 4f bd
       -0.18062346 -0.1322724 0.28211257 -0.050753757
0003f0 61 5e 53 3e f6 12 25 be 35 36 38 bc 20 04 06 be
       0.20641471 -0.16120514 -0.011243393 -0.13087511

fc3.bias f4 [10]
000000 70 4f 19 bd 65 4b 98 3d 95 a3 a3 3d f9 95 f0 bc
       -0.037429273 0.07436255 0.07990185 -0.029368388
000010 c3 33 de bd e9 36 88 bd 98 a1 00 bd 82 5e c1 3c
       -0.108497165 -0.06651098 -0.031404108 0.023604635
000020 6a d3 50 3e e6 3b 8b bc
       0.20393148 -0.016996335
