legacy/cifar_net.pth (torch, 250951 bytes, 10 tensors)

conv1.weight f4 [6, 3, 5, 5]
00000000: 5128 01bd 1cbb d5bd c7a8 63bd f492 c6bd
00000010: 34a4 d0bd 903a 2a3d 223b c2bb ed95 053e
00000020: 253d 123e 5f72 91bc e4aa a8bd 4eb0 a6bc
00000030: 0bd7 3c3d bfbd 1abd f5f4 48bd d81e dfbe
00000040: 898c cfbe 998a e5be c373 8dbe 3a2f a0be
00000050: 7d2f 59be 0953 c5be 9a8e b0be 5713 96be
00000060: f76c 84be 78f6 04be 4348 80be a3d7 d6bd
00000070: 2d23 60be 9c31 fbbd bb2a 143e 4faf 0c3e
00000080: 5930 033e 2e4b 9f3e 7dfb 8f3e 1efc a83c
00000090: caa0 783e b91e 453e 1202 6c3e 8578 1a3e
000000a0: 9f9b 43be bf4e 9fbd 4d27 4fbe 7651 5dbe
000000b0: 83eb 89be 1ac8 98bd 3e66 4abd 33a3 94bd
000000c0: 8bc5 e0bd 950b acbb dc50 8cbd 7720 79be
000000d0: 5395 1fbe da33 68be 40c6 47bd d941 da3d
000000e0: 20f1 8a3e d8d1 8b3e 5d16 973e f108 663e
000000f0: e764 c53e 724e 923e d2de d43e 0fd3 5c3e
00000100: 9762 5a3e fb18 5b3d 837e 153e a1e9 da3d
00000110: 179d 563e 98db af3d ebe4 4b3e 55c6 203d
00000120: 20d4 203e 9596 903d 8c65 8e3d 4987 bc3e
00000130: bc5a 9b3e 341f ab3e 8985 fe3d 47e7 173d
00000140: 8a19 bc3e b787 e03e 8058 113f ddfe a13e
00000150: 2aee a73e 0578 163e 4358 883e 3b4d 9c3e
00000160: ea80 ba3c 4948 a93c f12e 82be aa8c 79be
00000170: 8090 d3be b366 e2be 6725 c3bc cbad 71be
00000180: e2d1 63be a8f4 83be 7524 7abe ace8 9d3c
00000190: a302 3ebe fcee 47be 1397 03bd 3d91 0cbe
000001a0: e24e 17be fbcc 1cbe 6912 a33c eb03 2a3e
000001b0: aeee 90bd 138c 8c3c 7efd 8abe 1d6d 2cbe
000001c0: c0c2 7dbe d57c 46be 6d6c 253d 62f4 8dbe
000001d0: cc1a c4be 2f11 f6be 2f4d 98be 2ab9 a13c
000001e0: f4ea 6bbc a971 3a3d 9b7b e5bd 7a7f 0fbe
000001f0: 17c6 903e c2b3 11be c595 6abe 8484 3dbe
00000200: ed35 75be 3953 7dbe f269 983d d560 ea3d
00000210: 7177 4c3e 952d d1bd 50c2 8b3d 8eaa 1ebc
00000220: f8c9 ad3d 0419 c1bd 12ea 8bbc 7485 473e
00000230: 9afe 8b3c e664 81bd e7f5 2bbe efd6 45be
00000240: 6d50 ab3d 6e44 9c3e e75c 403e 6d43 1d3e
00000250: e13f 823e f039 fe3e 9032 5dbe 78b1 553e
00000260: 52a9 6f3d aaf0 d4bd f118 e53b e59d 82bd
00000270: 924b 943e ecbb 42bd 4e79 34be c530 07bd
00000280: ff41 b73d 738d 753e 3ed1 15be 7591 a2be
00000290: 2c4d 8f3d b1e8 033e f5ad b23e ba0f 33be
000002a0: 614e aebe 0054 9a3d a3f5 863d 896b b43d
000002b0: 60d8 39be 8167 5bbe cbfc 383e 4ae7 77bd
000002c0: 0d00 e33d b251 04bd cca3 4cbe 3c6a 3abe
000002d0: 0401 743d 467a a13e ef98 723c b47e cdbe
000002e0: 56bf 0cbd 1340 403e 47fa da3e 1453 e7bd
000002f0: 781c fbbe 7e18 c0bd e447 003e ce9c 953e
00000300: 3c18 65be 3ec0 bbbe 25f0 4f3e 2279 8d3e
00000310: 1aa3 363d 9b3f 5bbe fd35 4cbe ac3f 623e
00000320: df0b a63c 17ce ec3d bb88 62bd e916 61be
00000330: 8348 c5ba ffe1 d03d 2680 c33e 295c 373d
00000340: 1275 c5be ae10 1dbe ddda 423e 17c7 b83e
00000350: a700 a03c 217a febe 753a a7bd b7fb 883e
00000360: aef6 9f3e bd77 20be 351c d3be e796 1c3e
00000370: f5c6 4f3e 0325 753e 0466 4cbe 0ff5 98be
00000380: 24d5 ec3d 47d2 443d 4d8b aebd 8a71 87bd
00000390: bcf6 6abe 816f 0fbe 53f5 e8bd a10c 0bbc
000003a0: 3e42 41bd 03c0 debd 2c64 ecbd e98a e2bd
000003b0: f413 98bd 17de 3cbd 371c f6bd 2680 1ebe
000003c0: 9168 fbbb 8787 d2bc c46b 8abd af6a 10be
000003d0: 1a0d 18bd 1a49 06be eb57 11bd 7a89 98bd
000003e0: 876a 073e 6261 6b3d b5d1 543c 6f56 a6ba
000003f0: e17d 59bc dddc c3bc 6a1c 3bbd e56a 463d
-0.03153259 -0.10436079 -0.05558088 -0.09695998 -0.10187569 0.041559756 -0.0059274593 0.13045473
0.14281137 -0.017754732 -0.0823572 -0.02034774 0.04610352 -0.037778612 -0.049061734 -0.4357822
-0.40536907 -0.44832304 -0.27627382 -0.3128603 -0.21209522 -0.38539913 -0.34483796 -0.2931163
-0.25864384 -0.12984645 -0.2505513 -0.10490348 -0.21888418 -0.122653216 0.14469425 0.1373875
0.12811412 0.31112045 0.28121558 0.020628031 0.24280086 0.19250001 0.23047665 0.15085037
-0.19102333 -0.077786915 -0.20229836 -0.21613106 -0.26937494 -0.07460041 -0.049413912 -0.0725769
-0.10975178 -0.005250404 -0.0685136 -0.2432879 -0.15584306 -0.2267603 -0.04877305 0.10657091
0.2713709 0.27308536 0.2950925 0.22464348 0.38553545 0.28575474 0.41576248 0.21564887
0.21326672 0.05349062 0.14599042 0.106890924 0.20958363 0.08586806 0.19911544 0.039251644
0.1570592 0.07059971 0.06952962 0.36821964 0.30342662 0.33422244 0.124278136 0.037085798
0.36738235 0.43853542 0.56775665 0.31639758 0.32798892 0.14694221 0.26629838 0.30527672
0.02276655 0.020664351 -0.25426438 -0.24370065 -0.41321182 -0.44218978 -0.023821546 -0.23601453
-0.22248033 -0.25772595 -0.2442797 0.019275986 -0.18555693 -0.19524759 -0.032126497 -0.13727279
-0.14776185 -0.15312569 0.01990624 0.16603057 -0.070767745 0.017156636 -0.27146524 -0.16838498
-0.24781322 -0.19383557 0.040386606 -0.27725512 -0.38301694 -0.48059985 -0.29746386 0.019741613
-0.014399279 0.04551855 -0.112052165 -0.14013472 0.2827613 -0.14228728 -0.22908695 -0.18507582
-0.23946352 -0.24738778 0.074420825 0.114442505 0.19967438 -0.10213772 0.068241715 -0.009684218
0.08485788 -0.094285995 -0.017079387 0.19484502 0.017089177 -0.06318073 -0.16793023 -0.19320272
0.083649494 0.30520958 0.1878544 0.15357752 0.2543936 0.49653578 -0.2160132 0.2086848
0.058511086 -0.103974655 0.0069914986 -0.06377772 0.28963906 -0.047542498 -0.17624399 -0.033005495
0.08948135 0.2397974 -0.14630601 -0.317516 0.06997141 0.12881733 0.34898344 -0.17486468
-0.34044173 0.07535553 0.0658982 0.08809573 -0.18148947 -0.21426202 0.18065183 -0.06052331
0.11083994 -0.032304473 -0.19984359 -0.18204588 0.05957128 0.315386 0.01480697 -0.4013573
-0.03436216 0.18774442 0.4276907 -0.11295143 -0.49045157 -0.093796715 0.12527424 0.29221195
-0.22372526 -0.36670107 0.20306452 0.2763148 0.04458914 -0.21410982 -0.1994247 0.22094601
0.020269332 0.11562746 -0.055306178 -0.21981396 -0.0015051517 0.10199355 0.38183707 0.044765625
-0.3856588 -0.15338394 0.19028802 0.36089393 0.019531561 -0.49702552 -0.08165447 0.26754543
0.3124289 -0.15670677 -0.41232458 0.1529194 0.2029074 0.239399 -0.19960791 -0.29874465
0.11564091 0.0480521 -0.08522663 -0.06613453 -0.22945684 -0.14007379 -0.11374917 -0.008486898
-0.047182314 -0.10876467 -0.11542544 -0.11061651 -0.07425681 -0.04611024 -0.120171 -0.15478572
-0.0076723774 -0.02569939 -0.06758836 -0.14103197 -0.03712187 -0.13113824 -0.035484236 -0.074480966
0.1322423 0.05746592 0.012989451 -0.0012690554 -0.013274641 -0.023909027 -0.045681395 0.048441786

conv1.bias f4 [6]
00000000: dd4a a43d 61ba 0cbf eb54 4dbe 3e7d ba3e
00000010: 85bb 9fbe 8b7f 9f3d
0.080220915 -0.5497189 -0.20051925 0.36423677 -0.31197754 0.07787999

conv2.weight f4 [16, 6, 5, 5]
00000000: be20 28be 1170 0cbe f028 cabd 15c2 18bc
00000010: d93d 2e3d d974 d53d e484 2f3e ea42 653e
00000020: 29de 503e d832 cd3d 889f 60be f698 6ebe
00000030: b944 1cbe 9a53 edbd c94a 203d 2ab8 263e
00000040: a32d 953e d2f7 913e ce67 273e 2b35 163d
00000050: 5dc7 84be 24ec dbbd 5cee ecbd ec2f a43d
00000060: fb64 6f3d 7c71 92bb 124d 61bd fabe 2bbc
00000070: fa7d 65bd f01b 873d 2275 853d 57cb 0c3d
00000080: ddb0 b83d a148 95bc 1ad0 15bd 623a 70be
00000090: 1be9 9ebe 349d 2dbe f671 01be d72b 04be
000000a0: 3c8e 3c3e baba 073e 8b5f 123e b278 0fbd
000000b0: f010 fbbc c3d2 2cbe f175 3bbc bf12 2a3e
000000c0: 2939 003e 2971 a03d bd41 0b3e 2f07 e3bd
000000d0: 3fda 123e f96a 8dbd 1d18 4e3d f76d e73b
000000e0: 51f0 dbbd 74d9 0fbd 0bcc 5fbd 88d4 123d
000000f0: 4561 1ebd 038e 94bd 9ca2 d1bd 9949 73bd
00000100: 603f 1bbe 4001 e3bd 9f97 16be 360f b5bd
00000110: e1fe 4abe e477 05be 4960 a93d 7a3c 13be
00000120: a935 14be 544e 99bc 7b5c d9bd bf94 3d3d
00000130: 53bd df3d 1ef6 d03d d3e0 923c 2fb6 713c
00000140: f0bf dcbc e314 39bc 8a86 e23c 7536 e43d
00000150: acef 3fbb de6b 14bd b029 7fbc 304c 09b9
00000160: 05f9 bebd 3163 84bd 5be5 99bd d0b6 a53b
00000170: 0213 66bd 8d75 d2bd 3609 26be 3709 ed3b
00000180: 12bd cdbd 9b1a 67bd f837 e9bd aa1b 64be
00000190: b8eb f63b be71 953d 44f2 353d c8d9 773d
000001a0: 192a 453d 772a 593c 46c1 5fbc b357 babd
000001b0: 2d9d 563d f668 78bd 383d 3c3e c0e4 a33d
000001c0: e0b8 9c3d ddc7 92bc 5344 b73d a6f0 783b
000001d0: 149b 583d b9b1 f4bc 9758 d93c 9573 153d
000001e0: 6249 fe3d 442d 8e3c e0a6 b7bc 2d00 b93d
000001f0: c62a 363d 40e8 18be 9d9d 8abd 0590 73bd
00000200: cf3f 33bd 4af1 fabd 64a1 753d 8185 b5bc
00000210: 5d05 4a3d d862 773d fe5c a13c 8ec0 1f3e
00000220: b7ae 7e3e cf86 113e 2bb2 c33d 84c6 773d
00000230: b8a0 cbbd b748 0d3d 2a2f 553e e64f 463e
00000240: 04b3 303e 7cb8 4b3e 6669 bc3c 8008 643d
00000250: f96f 2a3d 41c9 2e3d 6367 833d 79e6 6b3d
00000260: a3e5 193e 90a8 983e 7d5c 8e3e 5d3e c9bc
00000270: 3f40 a2bd 7059 2dbe 68f0 dbbd 884c 1bbd
00000280: c566 e03c 8d27 3d3c 937f f0bb 2cdb 8cbd
00000290: dbde b0bd 0450 833d 9825 8f3c 862a 0dbe
000002a0: b62c dcbd 3a18 d4bc c56d b03c 3bcc d23d
000002b0: 3285 fd3c e982 123c 9e2a 5dbd 6255 56be
000002c0: 0f33 15be 1fe0 79bd 16bf e1bd d2ff d93c
000002d0: fbb5 6d3d 9245 a9bd 598d d7bc 1bbc f4bd
000002e0: 1c9f b4ba 9b22 413c 06c7 663c 93e3 473e
000002f0: 7219 4c3e 57b6 233e 77af f63d 1b0f 0bbd
00000300: 1ca0 9d3d 87ad 973d bd10 483d 294c 92bc
00000310: e845 713d 7fd4 8fbd 0973 593c 177b 23be
00000320: 144b 413d 12dd 1bbd 3b4b c5bd 90ba 26bd
00000330: 4eaf cf3c e8c7 81bd daba cdbc e692 babd
00000340: db0d cabd 969a c0bd df9e 08bd 8fb5 15bd
00000350: 32e1 89bd f078 04be d42e eebd 3287 07be
00000360: 4965 d13c ee88 9a3c 8905 873b b8ba 203c
00000370: 0766 0cbc dad0 77bc d9e6 c53d 4e45 4e3d
00000380: 2bc6 643d 9daa d23e b934 6a3e f729 423e
00000390: ac3b 1d3e 014a e83d 55a4 683e d117 3bbc
000003a0: 6cc1 573c f6c3 c0bc 9a28 00be f0de a03d
000003b0: 9a3b 603c 872c 603c 8085 17be cda8 73bd
000003c0: 8beb bcbc 7a8e 693a ed33 96bd d126 313c
000003d0: a81e 9c3c 4241 31bd 989c 17be ab25 21bd
000003e0: ab87 13bd 009a 87bd 0f5c 1d3d 454a 89bc
000003f0: 896e 823c 18c2 8abd 4631 9ebc fc76 8f3d
-0.1641874 -0.13714625 -0.098710895 -0.0093236165 0.04253945 0.104226775 0.17140538 0.22388807
0.20397247 0.10019463 -0.21935856 -0.23300537 -0.1526059 -0.11588211 0.03913382 0.1628119
0.2913638 0.28509384 0.16348192 0.0366718 -0.25933352 -0.107383996 -0.11568901 0.08016953
0.05844591 -0.004469095 -0.05500514 -0.010482544 -0.056028344 0.065971255 0.06516482 0.034373607
0.09018109 -0.018223109 -0.036575414 -0.23459771 -0.3103722 -0.169545 -0.12641129 -0.12907349
0.18413633 0.13254824 0.14294259 -0.035027213 -0.030647725 -0.16877274 -0.011441694 0.16608714
0.12521805 0.078340836 0.13599296 -0.110853545 0.14341067 -0.06905169 0.050315965 0.0070626694
-0.10739196 -0.03511949 -0.05463795 0.035847217 -0.038666982 -0.07253649 -0.102360934 -0.05939636
-0.15160894 -0.11084223 -0.14706276 -0.08840792 -0.19823791 -0.13034016 0.08270318 -0.14378539
-0.14473595 -0.018714108 -0.106133424 0.046284433 0.109247826 0.10203193 0.01792947 0.014752909
-0.026946992 -0.011296484 0.027652044 0.11143199 -0.0029287143 -0.036235683 -0.015573904 -0.0001309372
-0.093248405 -0.06464232 -0.07514449 0.0050571933 -0.05617047 -0.10276327 -0.16214451 0.0072337645
-0.10045828 -0.056421857 -0.11387628 -0.22276178 0.007535424 0.07297085 0.044420496 0.060510427
0.04813585 0.013254753 -0.01365692 -0.090987585 0.05239599 -0.060646974 0.18382728 0.08002615
0.076524496 -0.017917568 0.08948579 0.0037985235 0.05288227 -0.029869901 0.0265315 0.03648718
0.124163404 0.017355569 -0.02241844 0.09033237 0.044474386 -0.14932346 -0.067683436 -0.05946352
-0.043762024 -0.122530535 0.059968367 -0.022158386 0.04932152 0.060397 0.019697662 0.15600798
0.24871336 0.14211582 0.09555467 0.060492054 -0.09942764 0.034493174 0.20818773 0.19366416
0.17255789 0.19894594 0.022999477 0.05567217 0.04161069 0.0426724 0.06416204 0.057592843
0.15029006 0.29816103 0.27804938 -0.02456587 -0.0792241 -0.16928649 -0.10739213 -0.037914783
0.027392754 0.011545074 -0.007339427 -0.06877741 -0.08636256 0.06411746 0.01747398 -0.13785753
-0.107507154 -0.025890458 0.021536717 0.1029286 0.030947302 0.008942344 -0.05399572 -0.20931008
-0.14570259 -0.061004754 -0.11022775 0.026611242 0.05803488 -0.082652226 -0.026312517 -0.11949941
-0.0013780328 0.011788036 0.014085537 0.19520406 0.19931582 0.15987526 0.12045186 -0.033949953
0.07696554 0.074061446 0.048844088 -0.017858582 0.05890456 -0.07022952 0.013272055 -0.15964924
0.04719074 -0.038052626 -0.0963349 -0.040705264 0.025352146 -0.06336957 -0.025113512 -0.0911005
-0.09865924 -0.09404485 -0.033354636 -0.0365501 -0.06732406 -0.12936759 -0.116300255 -0.13235167
0.025560992 0.018864121 0.004120533 0.009810142 -0.008569247 -0.015125478 0.09663171 0.050359063
0.05585305 0.41145793 0.22871675 0.18961321 0.15354794 0.1134224 0.22718938 -0.0114192525
0.013168674 -0.023530941 -0.12515488 0.07855022 0.013686085 0.013682491 -0.1479702 -0.059487153
-0.023061534 0.00089094753 -0.07334123 0.010812477 0.019057587 -0.043275125 -0.1480583 -0.039342564
-0.036018055 -0.0662117 0.038417872 -0.016759047 0.015921848 -0.06775302 -0.019310605 0.07005116

conv2.bias f4 [16]
00000000: 37dd b2be 055b 11be 97d1 3cbe dabf 8ebe
00000010: 5eb1 1f3e 4778 0b3f c755 99bd 8302 83be
00000020: 7ab1 823e 6495 853e bbf1 c1bd fa84 a4bd
00000030: 414f 9a3d 968e 3ebf 9bb4 603f 722f 123f
-0.349344 -0.14194877 -0.18439327 -0.27880746 0.15595004 0.54480404 -0.07487064 -0.25587854
0.2552603 0.26090539 -0.094699346 -0.08033176 0.07534648 -0.7443632 0.8777558 0.57103646

fc1.weight f4 [120, 400]
00000000: dfd8 81bd 70f9 babc f549 5b3c 59b5 82bd
00000010: a215 1bbd bd98 a5bc 56a3 cabd 02ea 14bd
00000020: f936 c73b df0f 23bd 6a6c 07bd bfe5 3fbd
00000030: 966a 83bd 3ec0 74bd 7a4c 9cbd 4be9 213c
00000040: 57fc 363d bf7f 5cbc cac0 103d 12c2 f93c
00000050: 57c2 f03c b98a d2bc c677 4bbd edc8 63bd
00000060: 434b 2e3c 87f7 ecbc 96fd 14bd 2f3e 3dbc
00000070: 048b ab3c 47cb 70bc 3363 b1bc 114b 19bb
00000080: 366b be3b 9542 eb39 3cce 82bc 35e4 65bb
00000090: 7c8d 4d3c baf7 99bd 1280 89bc 5d80 a7bb
000000a0: daa6 54bc af77 37bd 0127 6ebd f100 95bd
000000b0: a0c8 8fbc 23e8 553d fec4 353d b95a c3bb
000000c0: e0dc a3bc 28db 8d3c eb31 5fbc 86e1 e33c
000000d0: 324c a7bd 6958 9fbd 301d 24bd 9691 273c
000000e0: 86c8 5c3c ad55 aabd ede1 23bd 49b6 eebd
000000f0: 9968 d53b 78c3 74bd c2e0 043c fc8b 8bbd
00000100: 6082 89bd 3bf0 b6bb 1c42 913b c66c f03c
00000110: 2930 b0bd bef1 0abd 4134 87bc a9cd f4bc
00000120: 3277 913c 096b 833c 9b4b 2cbd a90e 3abc
00000130: 1b7a a3bc 25b9 fcbc 11d7 60bd 19c5 c73c
00000140: 057d bfbc 298c 8c3d 3791 14bd d3d2 d53c
00000150: dffd 3dbc 043b 99bc d5df 63bd 8c34 26bc
00000160: 023f a3bc 7b01 bcbb 59d7 94bd 4ff8 ca3a
00000170: e53c a8bb d9f4 90bb 39d1 d73c 6799 a8bd
00000180: 73cd 04bd fade 3cbd b18a 86bb d8b7 b7bc
00000190: e401 a0bd e6a3 97bc 55a2 9ebb 0eeb 603d
000001a0: 8344 193c b49f b6bc 47ec 0fbc 1010 c83c
000001b0: ee0f 08bd b11e 593d 2476 46bd 49a9 43bd
000001c0: f4be e6bc 271e 843c 998d 973b db0a 3ebd
000001d0: 1885 723c 25b2 05bd 8040 083b 9c5b 08bd
000001e0: f40c 16bd d7d5 2b3c 46f7 81bd 04c6 273c
000001f0: 99e1 bebc 0481 a83d 5783 cdbc ce8e b2bc
00000200: cd96 22bd 15a3 87bc 4522 a43d 089f 16bd
00000210: d973 5ebd 0469 7dbd 433d c93b f1ab 133d
00000220: a6ee 87bd d919 eebc 697c 0b3c 526c b63c
00000230: 6f42 5c3d 00b8 3bbd eb61 27bc a95a 2ebc
00000240: 25e1 893b e797 323d c1cc c93b 2aaf a0bd
00000250: 2584 9f3c 834a e33c 0090 093d 8fdf a1bd
00000260: f182 a1bd 4fbc 19bd a21d 32bd 1d4d 85bd
00000270: fcca 63bd 504f 6bbd 7774 e53b 053f 3fbd
00000280: 16a8 c4bc 101a 413c 8c8b 21bc 0c16 17bd
00000290: 6ffa c4bc 7279 b3bb 5fe9 273c 4a79 86bc
000002a0: 8628 0bbd 9564 03bc 7069 2abd f510 763a
000002b0: da7a c4bc b14e b6bb b1e6 55bd 7e23 47bd
000002c0: d4e8 353d 1010 5abc 2de6 b6bc 63d0 81bd
000002d0: 687f e1bc dbed 06bd 319e 44bd ad6b e23b
000002e0: 1991 c0bd 3105 f0bd d23a df3b 25fb 72bc
000002f0: 5548 2ebd c48a bdbd be10 73bd e208 793c
00000300: b8dd a0bc c067 14bd e40f 2cbd 2e33 79bd
00000310: 81dc 61bd 4691 093d 81d4 06bd 4b65 0fbd
00000320: fabd d9bc 6880 f23c 2ca5 9c3c 2fc0 563d
00000330: d950 2c3d a066 0c3d 12af 9c3d e575 df3d
00000340: d61d 5e3d a768 1cbc 74df bf3c eab1 763d
00000350: 51d1 813d 5019 b33d d1b5 88bc b272 adbc
00000360: 99ff 4e3c d507 693d 2e08 a7bc ce7e f6bc
00000370: 58b7 76bc 2603 0f3d dced 30bd a057 eabb
00000380: 6ed4 2a3d 6b12 743b 69d3 653d 9c3f cc3d
00000390: e1bc e4bc 2c6d 94bc 063a 063e 9c5d ef3d
000003a0: 6902 043d 928f b73c 4d7d ea3d aaf9 b83d
000003b0: efc7 053d 2ab5 743b 5003 2b3d f5bb 9e3d
000003c0: e30b a0bc 464c 13bd 5d24 4dbd d4c1 30bd
000003d0: adef 403d f086 3c3d c732 eb3c 90a6 9bbc
000003e0: 1ceb bbbc 870a c23c bd77 acbd 1e90 84b9
000003f0: 9839 b43d 1aa7 b23d 4a0a 7f3d 6cb0 2bbd
-0.06340193 -0.02282402 0.013384332 -0.063822456 -0.037862428 -0.020214433 -0.09894435 -0.03635598
0.0060795513 -0.039810058 -0.033062376 -0.046849962 -0.06416814 -0.05975365 -0.07631774 0.009882282
0.044674244 -0.013458191 0.035340108 0.030488048 0.029389543 -0.025700914 -0.04967477 -0.05561154
0.010638061 -0.028926624 -0.03637465 -0.01155047 0.020940311 -0.014696903 -0.021653747 -0.002339069
0.0058111204 0.000448723 -0.01596748 -0.003507865 0.01254594 -0.07517953 -0.016784701 -0.0051117376
-0.012979234 -0.044791874 -0.058142666 -0.0727557 -0.01755172 0.052223336 0.04437732 -0.0059617427
-0.020002782 0.017316416 -0.013622741 0.027817499 -0.0816883 -0.07780535 -0.040066898 0.0102275815
0.013475543 -0.083171226 -0.04001038 -0.11655862 0.006512713 -0.059756726 0.008110227 -0.06813809
-0.0671432 -0.005582837 0.0044329297 0.029348742 -0.08602936 -0.03392195 -0.016504409 -0.029883223
0.017757032 0.01604225 -0.04206429 -0.011356034 -0.019955685 -0.030850003 -0.054892603 0.024385976
-0.023375044 0.06862671 -0.0362713 0.026101505 -0.011596172 -0.018704899 -0.055633385 -0.010144364
-0.019927505 -0.005737481 -0.07267637 0.0015485379 -0.0051342123 -0.0044237194 0.026344882 -0.08232384
-0.032422494 -0.046111085 -0.004105889 -0.02242653 -0.078128606 -0.01851077 -0.004841129 0.054911666
0.009354713 -0.02229295 -0.00878436 0.024421722 -0.033218317 0.053007785 -0.04845251 -0.047768865
-0.028167225 0.016127659 0.004625034 -0.04639707 0.01480224 -0.032640595 0.0020790398 -0.03329049
-0.036633447 0.010487995 -0.06345992 0.010240082 -0.023300933 0.08227733 -0.025087042 -0.02179661
-0.039694596 -0.016557256 0.08014349 -0.036772758 -0.0543097 -0.06186773 0.006141336 0.036052648
-0.066373155 -0.02906506 0.008513548 0.022268448 0.053774294 -0.045829773 -0.010216217 -0.010641732
0.0042077475 0.043601897 0.006158442 -0.0784591 0.019472191 0.02774549 0.033584595 -0.079039685
-0.07886303 -0.0375331 -0.04348529 -0.06508849 -0.055613503 -0.057448685 0.007002409 -0.04669096
-0.02400593 0.011785999 -0.009859931 -0.03688626 -0.024045197 -0.005477124 0.010248511 -0.016415257
-0.033974193 -0.008019586 -0.04160446 0.0009386682 -0.023984361 -0.00556358 -0.052221958 -0.048617832
0.044411495 -0.013309494 -0.022326553 -0.06338575 -0.027526572 -0.03294168 -0.048002426 0.0069098086
-0.09402675 -0.1171974 0.006812432 -0.014830385 -0.04254945 -0.09254983 -0.05934214 0.015199872
-0.019636974 -0.036231756 -0.042007342 -0.060839824 -0.05514193 0.03358581 -0.032917503 -0.03500871
-0.026579846 0.029602244 0.019121729 0.052429374 0.04206929 0.03427756 0.076505795 0.109111585
0.054227673 -0.009546435 0.02342198 0.060228266 0.06338752 0.08745062 -0.01668826 -0.021172855
0.012634181 0.056892235 -0.020389643 -0.030089762 -0.015058361 0.034915112 -0.04319559 -0.007151559
0.041706495 0.0037242423 0.05610982 0.0997307 -0.027922096 -0.018118463 0.13108072 0.116877764
0.03222886 0.022407327 0.114496805 0.09031995 0.032661375 0.0037339428 0.041751206 0.07750694
-0.019536918 -0.035961412 -0.050083507 -0.0431536 0.047103573 0.046027124 0.028710736 -0.019000322
-0.022939257 0.02368666 -0.08421276 -0.00025284378 0.08800048 0.08723278 0.06226567 -0.041916296

fc1.bias f4 [120]
00000000: 1db8 a23d 6e42 383e 71d3 1c3d c298 80bd
00000010: c48a 953b c953 023e 62ab 303d 2dc4 89bd
00000020: 337c df3c bb7c d63c 9b04 4dbd 405d 283e
00000030: 1aa2 f13d f4c7 afbd 1522 afbc e669 333d
00000040: 92ac 213d 0258 03be ebeb 3cbd 2ddd d63d
00000050: 6767 673d d3ed 263d ea0d 69bd 810e f8bc
00000060: c3fd aabc d2c2 873d 499f c2bb 13a0 3b3d
00000070: 0319 d13d 355d aabd 6764 dd3d 9a69 03bd
00000080: f0a7 7b3d 39a3 b23d 29cf 54bd ec47 b23c
00000090: 2f26 a43c 1317 8e3d 5942 8c3d 1cbb 55bd
000000a0: 8b75 513c e779 063b 2e68 88b9 3acb 0c3e
000000b0: 5a25 f43d a559 22bc 9014 003d 1a17 99bc
000000c0: 6365 7ebd df45 bebc 0f94 a8bc 2500 bc3d
000000d0: 8f7b c9bd 0d98 803c ecb1 883d ec86 4f3e
000000e0: c54d 143e 8521 ef3d ccb4 a9bb 9291 21bd
000000f0: b2fa 723d 5f84 753c 0829 9ebc 6e92 d63d
00000100: 9c8f c2bc 1470 3f3d aadf ca3d 44d4 43bd
00000110: fa06 b03c 8478 dbbd ba5c 393d 2de5 00bd
00000120: 55aa ddbd f37c 883d 2d97 0dbe 52e2 89bc
00000130: e723 663d 252f 993d 308d b9bd c789 efbc
00000140: bc27 06bb 3796 33bd 4bf7 033e 1d8c 373d
00000150: 312e 883d 15a7 d23b d3fc 9a3d 59c5 f93c
00000160: ad40 71bc 4974 80bc d20c 3abd c29b 21bc
00000170: 2f55 31be 15e6 b8bd 4b92 993c eaa0 213d
00000180: a61e cf3c e9fc 1d3e b043 ed3c b9e8 c53d
00000190: 00ec c8bb d210 94bc 9295 9a3d 39f2 423e
000001a0: 1327 e6ba ea1a 273d 9bb3 ac3d a7fe 14bd
000001b0: b12f 343b d028 ae3b b748 803d a25a 85bd
000001c0: 313d 863c 535c 4e3d 6ae4 023d 676e f53b
000001d0: 4262 293e 24f8 b03d f934 0a3e c8bc ad3d
0.07945273 0.17994091 0.038287584 -0.06279136 0.0045636613 0.12727274 0.043132193 -0.06726871
0.027280902 0.026182523 -0.05005322 0.16441822 0.117984965 -0.0858306 -0.021378556 0.043802164
0.039471216 -0.12826541 -0.046123426 0.10491405 0.056495097 0.04075415 -0.056898035 -0.030280354
-0.020872956 0.06628956 -0.0059393984 0.045806956 0.10209849 -0.08318559 0.10810166 -0.03208313
0.061439455 0.087225385 -0.051955376 0.02176281 0.020037739 0.06937995 0.06848592 -0.052180395
0.012784372 0.0020519437 -0.0002601756 0.137494 0.11921187 -0.009909068 0.03126961 -0.018687773
-0.06210841 -0.023226677 -0.020578412 0.09179715 -0.0983802 0.015697503 0.06674561 0.20266312
0.14482792 0.11676315 -0.0051790234 -0.039445467 0.059321113 0.014985173 -0.019306675 0.10477148
-0.023750119 0.046737745 0.09905942 -0.047809854 0.021487702 -0.10716346 0.045254447 -0.03146856
-0.10823504 0.06664457 -0.138272 -0.01683155 0.056186583 0.07479695 -0.090601325 -0.029240502
-0.002047046 -0.043844428 0.12887304 0.044811357 0.06649435 0.006428609 0.07567754 0.03048961
-0.014724893 -0.01568045 -0.045422383 -0.009863796 -0.17317651 -0.0902826 0.018746516 0.0394601
0.025283169 0.15428509 0.02896294 0.09663529 -0.006131649 -0.018074427 0.075480595 0.19037713
-0.0017559252 0.04079715 0.084326945 -0.036375668 0.0027494247 0.005314924 0.06263869 -0.065114275
0.0163866 0.050381016 0.031956114 0.0074899676 0.16541389 0.08641079 0.1349677 0.08483273

fc2.weight f4 [84, 120]
00000000: 8dab 473c f260 a2bd a292 913d af8c 86bd
00000010: 2c9d 0f3d 6a19 b23d eb81 463d 5447 0a3d
00000020: 0569 8a3b 8b94 493c bd9f 2f3d 1767 94bc
00000030: fbcc 82bd d33c 413d ce1b 9cbd 7cf9 7d3d
00000040: 117d 3a3d 1096 b23c 0bb7 57bd ce31 b6bd
00000050: ca14 49bc f974 47bc 4120 df3c 6879 8bbd
00000060: 02e1 083c bf38 adbd f473 ad3c ff4c 893d
00000070: 377c 93bd 1e98 aa3d dbde 69bd 3e3f cdbb
00000080: 864f 5cbc b636 213d 4f55 cd3d 606f 113d
00000090: 6939 9d3d d82e 20bd a7a3 adbd 5688 f83b
000000a0: 3837 023d ba7d a03d ab2e 07bd 2313 d0bc
000000b0: 2ff4 21bd 0a56 903d ca52 8ebc 48bd 92bd
000000c0: cf44 a1bd 60cd d53b 3475 8fbc 06cb f73a
000000d0: dfdb 413c 1a1a b53d 5b08 fdbc 0cca 53bd
000000e0: 0ffd 92bd 825a 303d 77b3 283d ea51 4bbd
000000f0: b934 dc3c f764 c53b 8a37 22bd 0d19 cc3c
00000100: c640 3bbc d040 aabd 55e8 75bd 32a2 a03a
00000110: b797 c13c cca9 b83d b15d b23d 3677 8cbd
00000120: 1e7a 503c 5295 5ebd 5822 f3bb c1b3 2f3c
00000130: 5a74 563d 8b5d 30bd bfca 233c ec1b 6abd
00000140: 7876 79bd 9d03 b03d f32e c03c 8543 b5bd
00000150: 2084 d0bb 9e15 63bc c578 9dbd fda3 1ebd
00000160: 9fc3 8ebd 8ca4 87bc b916 32bd ab3a a93d
00000170: a69f 513d bb35 eabb 4c2e 5ebd 56cb 2e3c
00000180: 66ca 763d 7b7a 5dbd 9ce7 463d 5216 5cbd
00000190: bce9 303d f982 2abd a481 cfbc a26c 813c
000001a0: 24ef 123d 7fbe 92bd 5614 7abd bb75 04bd
000001b0: 3d0d 873d 4587 5ebd 8ae7 f63c cccd a8bd
000001c0: 14c5 2a3d 062b c83c bb29 553d b59b 9c3d
000001d0: 5aa2 2cba 00b5 8f3d a714 fb3c 7405 2fbd
000001e0: 39d7 03be 6700 0ebb 9f60 c0bc 81cf da39
000001f0: 5d7c af3d e2b1 a2bd fb14 b5bd ed19 06bd
00000200: 669b b2bd 01f4 f43c a05a 733d 486f a33d
00000210: fa5c f2bd eec1 02bc c121 dcbc 378b 5abd
00000220: 2d6b 3e3e f337 06be a4d7 2b3c 6942 f9bc
00000230: ae41 653d 8168 053e 69e2 debc c848 83bd
00000240: 0e4e a73d 29d1 7c3d 6db8 ad3d 3286 0c3c
00000250: 5e5c 1fbd 859b b5bd 7f34 653d 15e7 15bd
00000260: 69c1 db3d c199 543d b358 253d f290 d83c
00000270: edad abbd 22cb cbbd 4846 a23a 823b 023d
00000280: ae3c 7ebd 7d76 b73c 7b90 f13d d9fd 27bd
00000290: 3229 16bd 6b56 08bd d1ae 1bbc abde 83bd
000002a0: ea9f b53d 5461 84bd 3b89 8cbd 1c5a 2dbe
000002b0: 9fd2 223e 23a4 063d ad2f 86bb 263f b13d
000002c0: a959 84bd 7df1 0b3e 7c2b 1d3d 71da bdbd
000002d0: 459e 9dbd 20b5 a9bd 6182 433d 30f1 043e
000002e0: 7c51 2bbc 21e8 393d cd4b 36bd 5b87 35bc
000002f0: ec35 0fbd 45a0 3cbd fb01 663c 4028 dbbd
00000300: cdfe 69bd 56a0 c0bc c909 1cbe e142 68bc
00000310: 49a2 2e3c 8fac 04be a6ed debc 90c8 8b3b
00000320: b4c3 363d 93a8 0e3d c986 24bc cd5b 583b
00000330: ccee fc3c ef44 c7bd 9f6a 6cbd 6890 78bd
00000340: 6164 4b3d 375c 9cbd a6b6 b33d bf88 343d
00000350: e46d ddbd e01b 693d 73a5 a63c 117b 1fbd
00000360: 079a da3b df75 c03d 0a41 2b3d 1a59 61bd
00000370: d56a 7bbd 674c 903d fe5a 89bb 8854 81bd
00000380: 488a 653d 46f0 77bb a010 36bc 3b79 2a3e
00000390: b359 603c da05 bcbd 9fc2 8fbd 4bfc a6bd
000003a0: 7de9 f7bc a24d 6a3d a8ec 50bd 5eab 80bd
000003b0: ddc8 203d 6ec4 aebd 47db 0f3d a295 9d3d
000003c0: c23c b5bc a08a a53d 9846 1fbd f482 813d
000003d0: ee1f 97bd 6201 0dbd 1996 51bd 5bfb 1a3d
000003e0: bfa8 bbbd aebb 00bd f25c debc 1aea b4bd
000003f0: 642e a3bd d895 423d 1036 cf3d 15f3 0abe
0.012186897 -0.07928647 0.07108046 -0.06569802 0.035062 0.086962536 0.048463743 0.03375943
0.004223945 0.012303482 0.042876948 -0.018115563 -0.06386753 0.047177147 -0.07622491 0.062005505
0.04552943 0.021800071 -0.052664798 -0.08896218 -0.012273023 -0.012173885 0.02723706 -0.06810266
0.008354427 -0.08458089 0.021173455 0.06704139 -0.072014265 0.08329795 -0.057097297 -0.0062636426
-0.013446694 0.039358817 0.10026037 0.035506606 0.07676966 -0.039107174 -0.0847848 0.007584612
0.031790942 0.078364804 -0.03300349 -0.02539975 -0.039539512 0.07047661 -0.017373461 -0.07165009
-0.07874452 0.0065247267 -0.017511941 0.001890511 0.0118322065 0.08842869 -0.030887773 -0.05170636
-0.07177173 0.043055065 0.041186776 -0.049638666 0.026880609 0.006023999 -0.039603747 0.024914289
-0.011429017 -0.08313143 -0.060036022 0.0012255369 0.023631914 0.09016761 0.087092765 -0.06858675
0.0127244275 -0.05434162 -0.0074198656 0.010724009 0.052357055 -0.04305796 0.009997069 -0.057155535
-0.060903996 0.08594439 0.023459887 -0.08850769 -0.006363407 -0.013860134 -0.076890506 -0.03873061
-0.069709055 -0.016557954 -0.0434787 0.08263143 0.051177643 -0.0071475185 -0.05424337 0.010668596
0.060251616 -0.054071885 0.048560724 -0.053732224 0.043191656 -0.04162881 -0.025330372 0.01579887
0.035872594 -0.071652405 -0.06105455 -0.03233884 0.06594322 -0.05432822 0.030139703 -0.08242378
0.041691855 0.024434578 0.05204175 0.07646886 -0.00065854716 0.07016945 0.030649496 -0.04272981
-0.1287507 -0.002166772 -0.023483573 0.00041734803 0.08568642 -0.07944085 -0.08841892 -0.03273957
-0.08721046 0.029901506 0.0594126 0.079802096 -0.1183414 -0.007980807 -0.026871564 -0.053355422
0.18595572 -0.1310728 0.010488424 -0.030427175 0.05597084 0.13028146 -0.02720757 -0.06410366
0.081691846 0.06172291 0.08482442 0.0085769165 -0.038906448 -0.088675536 0.055958267 -0.03659733
0.107302494 0.051904444 0.040367793 0.026436303 -0.08382783 -0.09950854 0.0012380565 0.031795032
-0.062069587 0.022395367 0.117951356 -0.041013572 -0.03666038 -0.03328554 -0.009502129 -0.06438955
0.08868392 -0.06463876 -0.06862112 -0.16928905 0.15900658 0.032871377 -0.004095039 0.08654623
-0.06462414 0.13666339 0.038371548 -0.0927018 -0.07696203 -0.082865 0.04773176 0.1298263
-0.010456439 0.04538739 -0.044505883 -0.011079635 -0.034963533 -0.046051282 0.014038558 -0.107010365
-0.057127763 -0.023513954 -0.15238108 -0.014176101 0.010658809 -0.12956451 -0.027212929 0.0042658523
0.04462023 0.034828734 -0.010041901 0.0033013702 0.030875586 -0.09729945 -0.05771887 -0.06068459
0.049656276 -0.07634776 0.08775072 0.044075724 -0.108119756 0.05691135 0.020342564 -0.038935725
0.0066711935 0.09397482 0.041810073 -0.055016614 -0.06138118 0.070458226 -0.0041917553 -0.06314951
0.05604008 -0.0037832423 -0.011112362 0.16647808 0.013693261 -0.091808036 -0.07019543 -0.0815359
-0.030262703 0.057202943 -0.051006943 -0.06282686 0.03925406 -0.0853356 0.03512123 0.07694556
-0.022123698 0.08083081 -0.038885683 0.063238055 -0.07379137 -0.034425147 -0.051168535 0.037837368
-0.09163045 -0.031428985 -0.02714393 -0.08833714 -0.07967833 0.047506183 0.101177335 -0.13569291

fc2.bias f4 [84]
00000000: 6722 51bd 743f 56bd a4c9 cabd 6e9f 793d
00000010: f5de e03d cf07 3e3b 254e 03be 339b 94bd
00000020: 2979 de3d 0b65 0e3e 0e92 7abc bc50 c1bc
00000030: 1ed9 9d3d 2a25 5d3e 1e56 153e 39b5 64bd
00000040: 62fb d5bc c665 af3d 2b3e 2839 2eeb 3f3d
00000050: 81ef 3e3d b1b9 243d c801 d3bd fa0e 453d
00000060: cf17 d83d b8c8 4bbc a893 2e3d 1d86 f2bc
00000070: e68a 8f3e 59a8 94bd cfc0 503d 2a17 843e
00000080: 7fca a53d d913 6dbb 8c9d 16bd 26f3 85bd
00000090: 6259 b4bd f2b1 af3d caf5 973d f284 973e
000000a0: 13c5 e9bd 23ba c53d cbbd c13d 67f1 e0bd
000000b0: d4d7 f3bc 77cb 3b3e c877 453e 3c62 cbbb
000000c0: 4b21 143e 91ea b63d ea82 2e3c 2a47 8b3e
000000d0: 6c0a 513c 0769 93bd a6e2 4b3c 2848 95bd
000000e0: 2cf7 ac3d 29e5 16bd 7db0 11bd 2f02 e3bc
000000f0: 6da3 5cbd 0951 59bd d088 bdbd 6491 38bc
00000100: c6e0 a0bd 7c37 943d 42e8 83bd 4ec4 87bd
00000110: 93eb 6c3e 465a cd3d d343 153e 24fd 8abd
00000120: e36b 7f3d 0523 4cbd 40cb cfbc 0864 6bbd
00000130: 09f6 8e3d d1ef ecbc d482 99bd 29b8 463c
00000140: e499 203e d172 be3d 038c c0b9 9018 e43e
-0.0510582 -0.052306607 -0.09901741 0.06094306 0.10980026 0.0028996354 -0.12822779 -0.072561644
0.10862953 0.13905732 -0.015293611 -0.023598067 0.077074274 0.21596208 0.14583632 -0.05583689
-0.026120845 0.085643336 0.00016044888 0.046855144 0.046615127 0.04021615 -0.10303074 0.048109986
0.10551416 -0.012437992 0.042621285 -0.029604966 0.2803566 -0.07258672 0.050965127 0.25798923
0.08095264 -0.003617516 -0.036771342 -0.065405175 -0.08806111 0.08578862 0.074199274 0.29593617
-0.11414542 0.096546434 0.09460028 -0.10983544 -0.029766 0.18339334 0.19283974 -0.006206779
0.14465825 0.08931459 0.0106513295 0.2720273 0.012758832 -0.07197767 0.012444174 -0.07289153
0.08445582 -0.036839638 -0.035568703 -0.027711002 -0.053866792 -0.053055797 -0.092546105 -0.011265133
-0.07855372 0.07237145 -0.06440784 -0.06629239 0.2313674 0.10026984 0.14576654 -0.06786564
0.06235875 -0.049838085 -0.025365472 -0.057468444 0.06980521 -0.028922947 -0.074956566 0.012128868
0.15683705 0.09299243 -0.0003672541 0.4454999

fc3.weight f4 [10, 84]
00000000: bb4a aebd b958 823e 8e14 9ebd 1068 26bc
00000010: c04c 173c 8b43 d3bd 943a 673d 1cd9 8b3e
00000020: 3381 323e c427 fabd cba6 49bd bc5a a93c
00000030: e1c2 7b3b c364 3ebe 73d3 18bc 9f30 f4bd
00000040: fd69 b6bd 2479 243e 9fa2 a53d 01a3 aabd
00000050: fa7e e739 d939 4a3e 4d1c 9ebd 3265 093d
00000060: 8ca0 b23d eac4 91bd 9166 903d e6fa 11bc
00000070: 6c09 61be f7e6 fd3d 6cae c5bd fba7 0bbe
00000080: fd05 86bd 94be 223c 6a3c 0fbd 13c5 fe3d
00000090: 2b28 d7bd 8e97 4a3d 6143 e93d 10c2 50be
000000a0: 396f 3c3e 2dd7 f53c 4513 373e 49d0 e33d
000000b0: 58f1 583d 27e6 313d a524 133e 840b f6ba
000000c0: c545 92bd 524e b03d 0a6f d53d 8032 9fbe
000000d0: 9119 f1bd 7a1d a53d 7fd4 2a3d 606a 063e
000000e0: 4749 f0bd 5f61 bf3d 3abe 9ebc d946 6c3e
000000f0: 48dd a13e d7c7 093c 8866 dabd f64c 803d
00000100: 6de8 efbd 3822 9bbd 84f6 0f3e 904e 3fbd
00000110: 086b 903e e920 a3bd 6843 85be 425f d43c
00000120: 4237 9f3b a032 d73d 6f0c a7bc 4347 553d
00000130: 4a58 b03c 1e70 f53d 9bfb 0bbd cf45 2c3c
00000140: 81f2 d1bd dd67 a03e 4f69 313e 0c86 9c3e
00000150: 7b75 713c d823 f53d 92df 1e3e 1644 e2bc
00000160: ef01 60bd 0c4d 153e 6c4b 77bd 46f5 97bd
00000170: d01e f3bd 265b 323d 5de8 0ebd 909b e8bd
00000180: 1346 ce3d 1574 53bd 8770 723d 7039 e33c
00000190: d93d 5f3e 877e 1abe 7059 473d a8f6 c0bd
000001a0: 2118 54bd c0ca 0b3d f15c 4f3e c983 c2bd
000001b0: 484b bfbd a428 b3bd 2d36 bc3d 7a79 963d
000001c0: 518f 89be 0f6b e1bd 4da1 a73d efb1 48be
000001d0: 6d83 fe3d 3d2c 33bd 201a 32bd b72b 513d
000001e0: 3b42 82be c2f7 91bd 5823 1abd 8cc2 60be
000001f0: a5e5 983e d1d0 9fbe 4dec d63d 9ab8 b83e
00000200: e8de bc3d feab d1bd 15dc 303e 0e8a de3d
00000210: e7de 53be 5885 f83c 9604 abbd 6926 6cbe
00000220: 3e62 b33c aa33 79bd d7f4 493d 0e30 9c3d
00000230: 1cd7 68be e36f 2dbe 9c12 9bbd 31c7 e7bc
00000240: 701e 9cbc d502 a33d c278 b13d 1fc0 993d
00000250: 2fb6 873e 8351 9c3c 107f e13c 104a c2bd
00000260: f616 7d3e b6ed 303e 69d2 2d3e 7096 a03c
00000270: 6c23 86bd 1412 80bd bd46 593e f9fd 4b3d
00000280: be0a b23d d49d d3bc 435a 613d 046e 073e
00000290: a925 bbbe 8c32 8b3e 773b 04be 9c63 c0bd
000002a0: 5714 38bd 6912 27be 97a5 d33b b6fd d7bd
000002b0: 98d3 693d 3f5c 6bbd 8791 013e 9239 573e
000002c0: 3e9b 10be 05be 813e 5bea cebc 27ce 123e
000002d0: e737 01be 26da ddbd 11aa 1bbe 4195 383c
000002e0: 39c9 b7bc 450e fa3d 5c5d 9abb 4455 eebd
000002f0: a96c 05bd c548 73be a774 263e c1da b53c
00000300: e08d 863e 1723 543e a848 883c 8fb7 98bd
00000310: 17a1 283e 5840 ba3d 7085 40ba c011 3e3e
00000320: 9e16 aebd 3083 013e d4dd b93d c9ec e23b
00000330: d771 aa3d c217 cbbd 7d8e 423e ef50 dd3d
00000340: c7d9 983d 65b0 143e 6e74 d8bd 228c f6bd
00000350: 78d8 d73d 4e2a 393e f121 c8bd 659b 9dbc
00000360: d730 7fbc b53e a9bd 351b 61bd 15d6 9e3d
00000370: 8e96 5bbe 260f ac3d 3d0f a1bd 029b e5bc
00000380: 9033 833d b142 823e 9ead a1bd 1ab5 da3d
00000390: ffd7 8d3d d583 a5bc d0a9 263c 2d21 c1bd
000003a0: fd43 06be b363 31be 279f 563e 2bd7 d13d
000003b0: ae37 f43d 50b6 98bd c67a c53c bf0f 5c3d
000003c0: 235e 31bd e13a 743d 081a b4bd 2874 b93d
000003d0: 14e9 2d3e dce9 233e a635 f73c e37b 123a
000003e0: 8936 db3d 2ae5 d9bd fd19 0b3e b2e5 afbc
000003f0: 79c8 9c3d 2efb 0ebe f247 0abe cdda c6bd
-0.085103475 0.25458315 -0.07718764 -0.010156646 0.009234607 -0.10315617 0.05645235 0.2731408
0.17432098 -0.12214616 -0.04923133 0.020673148 0.0038415717 -0.18593125 -0.009327757 -0.11923336
-0.089069344 0.16061836 0.08087658 -0.08331872 0.00044154358 0.1974863 -0.07720242 0.033543773
0.08722028 -0.071176365 0.07050813 -0.0089099165 -0.2197625 0.12397569 -0.09652409 -0.13638298
-0.06544111 0.009933133 -0.034969725 0.12439933 -0.10505708 0.04946094 0.11389805 -0.20386529
0.18401803 0.03000983 0.17878444 0.111237116 0.05296454 0.04343238 0.14369448 -0.0018771742
-0.07142214 0.086086884 0.1042157 -0.31093216 -0.117724545 0.08062263 0.04170656 0.13126516
-0.117327265 0.09344744 -0.019377816 0.23073901 0.31614137 0.008409462 -0.106640875 0.06264679
-0.117142536 -0.07574886 0.14058882 -0.046705782 0.28206658 -0.079652615 -0.2602799 0.025924329
0.004858882 0.10507703 -0.020391671 0.052069914 0.021526475 0.11984275 -0.034175497 0.010514691
-0.10251332 0.3132924 0.17325328 0.3057102 0.014737482 0.11969727 0.15514973 -0.027620357
-0.054689344 0.14580172 -0.060374662 -0.07419829 -0.118711114 0.043543957 -0.034889568 -0.11357796
0.10071959 -0.051624376 0.059189346 0.02773735 0.21800937 -0.15087329 0.04866928 -0.09422046
-0.051780824 0.034128904 0.20250298 -0.09497792 -0.09340531 -0.08747986 0.09190021 0.073473886
-0.26867154 -0.11006748 0.081850626 -0.19599126 0.12427411 -0.04374336 -0.043481946 0.05106708
-0.25441155 -0.07127334 -0.037631363 -0.21949214 0.29862705 -0.31214002 0.104942895 0.3607834
0.092222035 -0.10237883 0.17271455 0.108661756 -0.20690499 0.03033702 -0.08350484 -0.23061527
0.021897431 -0.060840286 0.049305763 0.07626353 -0.22738308 -0.16937213 -0.07571909 -0.028293224
-0.019057482 0.079595245 0.08665611 0.07507347 0.26506183 0.019081837 0.027526408 -0.094867826
0.2471579 0.1727818 0.16974796 0.019602984 -0.06549725 -0.06253448 0.21218391 0.049802754
0.08693455 -0.025832094 0.05501772 0.13225561 -0.3655217 0.27187002 -0.12913309 -0.09393999
-0.044941273 -0.16315617 0.006458949 -0.105464384 0.057086557 -0.05746102 0.1265317 0.21018055
-0.1412172 0.25340286 -0.025258234 0.14336453 -0.12618981 -0.10832624 -0.15201594 0.011266054
-0.022434818 0.12209753 -0.0047108363 -0.11637357 -0.03257433 -0.23758228 0.16255437 0.022199037
0.26280117 0.2071651 0.016636208 -0.07456886 0.16467701 0.09094304 -0.00073441025 0.18561459
-0.08500408 0.126477 0.090755135 0.0069251996 0.083224945 -0.09916641 0.18999667 0.108064525
0.07463413 0.14520414 -0.10569082 -0.12038447 0.10539335 0.18082544 -0.09772099 -0.019239137
-0.015575609 -0.082639135 -0.054957587 0.07755677 -0.21444151 0.08401327 -0.078642346 -0.028028015
0.06406319 0.25441507 -0.07894443 0.10679074 0.069259636 -0.020204464 0.010172322 -0.09430156
-0.13111873 -0.17323188 0.2095915 0.10246118 0.119246826 -0.07456648 0.024106394 0.053725954
-0.043302666 0.059626464 -0.087940276 0.09055358 0.16983443 0.16007179 0.030176949 0.00055879186
0.10703761 -0.10639413 0.13584132 -0.021471832 0.076554246 -0.13963005 -0.13504007 -0.09709702

fc3.bias f4 [10]
00000000: ea45 6cbe d5fe d4be 44cc 8cbb 5561 8f3e
00000010: 990c 153f 0b7d f5bd b7a6 8d3d 3103 85be
00000020: bee2 9e3e b39f 87be
-0.23073545 -0.4160067 -0.0042968113 0.28003946 0.5822235 -0.11986741 0.06916564 -0.25978997
0.31032366 -0.26489028
